models/action_model.pt (torch, 80762 bytes, 6 tensors)

action_network.0.weight f4 [128, 19]
000000 4f d6 22 bc e5 2e 41 be ea 92 3d be 18 e2 de bd
       -0.00993879 -0.18865545 -0.18513075 -0.10882968
000010 db 78 4f 3d 69 0c 47 bd bc c8 88 3d bb 14 74 be
       0.050652366 -0.04859582 0.06678912 -0.23836033
000020 5c 08 6d 3e 9d bc 23 bd 93 de 0f 3e fe 8d 18 3e
       0.2314772 -0.039974798 0.14049749 0.14897916
000030 0e b6 2b be 7d ed 70 be 82 0a e6 3b d5 a5 46 bd
       -0.16768667 -0.23528095 0.0070202956 -0.048497993
000040 89 c0 5a 3d 77 0b 09 3c 30 48 4f be f7 af 3c 3e
       0.053406272 0.00836455 -0.20242381 0.184265
000050 1e cc 65 3e f5 35 37 be 60 2d 2a 3e 47 58 31 3e
       0.22441146 -0.17891677 0.16618872 0.17318831
000060 ae bd 28 3e d7 46 81 3e 2b e4 8f 3d 9c 52 20 be
       0.16478607 0.2524936 0.070259415 -0.15656513
000070 b6 7d 15 3e 1a ec 20 3e 1b a3 4b 3e 81 c3 7a 3c
       0.14598736 0.15715066 0.19886439 0.015305401
000080 38 b5 32 be 3f a0 ca bd 99 81 e1 bd 48 bc f1 bc
       -0.17451942 -0.09893846 -0.11011047 -0.029508725
000090 be a1 3c 3e 10 99 03 3e ae ce 56 3d d2 d6 8d 3d
       0.18421075 0.12851357 0.0524432 0.06925739
0000a0 a8 69 f1 bd c2 a0 3e 3e af 6a 9f 3d fa f0 1f 3e
       -0.117877305 0.18616012 0.0778402 0.15619269
0000b0 07 35 4b be 35 88 2a bb e4 2b 61 3c 3a d3 98 bc
       -0.19844447 -0.0026021127 0.0137433745 -0.018655408
0000c0 0d 9b 66 3d 0d d3 a2 bd 26 c9 64 3d e2 50 27 3e
       0.05630021 -0.07950411 0.055855893 0.16339448
0000d0 33 27 70 bd 11 23 67 3e a3 57 b5 3d 75 dd b2 3c
       -0.058631133 0.2257197 0.08854606 0.021834115
0000e0 bc 7a 7a 3e 4a de ef 3a 9f 26 95 bd 4e 21 1f 3e
       0.24460882 0.00183005 -0.07282757 0.15540048
0000f0 e6 9d 12 3e 3f 29 09 3e ee fe 1c be 1b ef 52 bd
       0.14318046 0.1339464 -0.15331623 -0.05149756
000100 86 40 88 bd 3b 3b 7a 3d 1e a0 b5 3d 30 c4 00 be
       -0.06652932 0.061091643 0.088684306 -0.1257484
000110 7d 11 c3 bd a6 8a 69 3e 8d 43 53 be fe 72 38 bc
       -0.0952482 0.22806796 -0.20631237 -0.011257885
000120 12 38 c3 bd fd ac 28 bd 4d 4f c4 3c 7e 5f 57 3e
       -0.09532179 -0.0411806 0.023963595 0.21032521
000130 22 e6 ac bd 19 c8 2a be 36 08 00 be e1 6e 15 bc
       -0.08442332 -0.16677894 -0.12503132 -0.009120674
000140 cf 1b 31 3e a3 66 c4 3d 99 19 82 bd 7d 07 fc 3c
       0.17295764 0.09589889 -0.063525386 0.03076529
000150 b2 0c 1b be 5e ec 76 be 8c 24 5d be fc 1f 03 3c
       -0.15141562 -0.24113604 -0.21595973 0.008003231
000160 17 b3 c8 3c 1f ed 78 be 95 5c 99 3c 37 98 ca 3d
       0.02449946 -0.24309205 0.018720904 0.09892314
000170 5a 91 44 bd 2f 5e 70 bd 12 81 e8 3d 35 23 5e 3d
       -0.04799018 -0.05868357 0.11352743 0.054232795
000180 5a 70 35 bc a8 8f 85 3e b9 d4 dc ba 12 16 81 3e
       -0.01107415 0.26086164 -0.0016848064 0.2521215
000190 0a d7 0e 3e 28 29 df 3c d9 cb 45 3e 31 f2 bc bd
       0.13949218 0.027241305 0.19316043 -0.09225882
0001a0 b5 a9 b1 3d 0a 7d 5d be 56 fb a1 bd ef 63 a8 ba
       0.08674947 -0.2162973 -0.07909267 -0.0012847165
0001b0 28 60 48 3e 2e 4a 06 3c f6 db e1 bc a8 db 42 3e
       0.1956793 0.008196397 -0.027570706 0.19029105
0001c0 be 1d 36 3e 19 49 73 be bc ce 13 be cb 4c 09 3d
       0.17784783 -0.23758353 -0.14434332 0.0335205
0001d0 3c fb a9 3d 94 ed 1e 3c c1 6a 43 3e bc d2 c1 bd
       0.08299872 0.009700198 0.19083692 -0.094640225
0001e0 0b 8a 67 be 6d ff 10 3e 0f b2 ce 3d 86 3a e9 3d
       -0.22611253 0.14159937 0.10092556 0.113881156
0001f0 98 d5 82 be 5a aa 2b be d4 61 40 3d a7 20 c3 bd
       -0.25553584 -0.16764203 0.046968296 -0.09527712
000200 40 da 3e 3c 1a a2 26 3e 70 59 e5 bd d4 65 6c bd
       0.011648715 0.16272774 -0.111986995 -0.0577143
000210 56 c7 16 be 94 ed 25 3e a0 33 b4 3c a5 10 d0 bd
       -0.14724478 0.1620391 0.021997273 -0.10159425
000220 98 e5 f3 bd 5f ac cb 3d 70 ca 81 3c d4 ba 31 3d
       -0.11909026 0.099449866 0.0158436 0.043391064
000230 d6 09 82 be 2e 3e 11 3e 1a 7a 64 3e ed a0 5d 3e
       -0.2539813 0.14183876 0.22312203 0.2164342
000240 d2 39 9a bd 89 d6 ab bc f5 01 97 bc a8 ed db 3d
       -0.075305596 -0.020976322 -0.01843355 0.10738689
000250 1d ad 16 3e 7f 99 1d 3e 88 e1 a0 bd 4d 86 25 3e
       0.14714475 0.15390585 -0.07855517 0.16164513
000260 3e 75 1e 3e c2 f9 0a 3e 45 9f 43 be 32 02 1d be
       0.15474412 0.13571838 -0.19103725 -0.15332869
000270 67 9b 8b be d4 e4 09 3e fd 52 8a bc ed 8a 3b bd
       -0.27267 0.13466197 -0.016885275 -0.045786787
000280 b6 7b 35 3e 8f f9 3f 3e 65 80 c3 3d c9 31 0b 3e
       0.17722973 0.18747543 0.09545974 0.1359321
000290 ff 7b b6 bd a1 b3 b8 bd dc 5b 02 3e 92 0c 07 be
       -0.08910369 -0.090186365 0.12730354 -0.13188389
0002a0 c1 81 7e be 06 ab 5f bd 36 cd 5e 3e 87 21 1f be
       -0.24854185 -0.05460646 0.2175797 -0.15540133
0002b0 0d 95 51 bd 4c a6 09 be 15 15 29 3d 99 01 e6 bb
       -0.051167537 -0.13442343 0.04127987 -0.0070192334
0002c0 5c b1 cc 3d d0 73 15 3e eb fb 2d bc 6f 30 80 3c
       0.09994766 0.1459496 -0.010619144 0.015648095
0002d0 ef 85 3f 3d 00 3d 1c be 8c f9 b3 bd d6 15 05 3e
       0.04675859 -0.15257645 -0.08787832 0.12996611
0002e0 47 45 21 bd 27 1f 17 3d 04 10 a8 3d 19 9d a5 3d
       -0.03937271 0.036894944 0.0820618 0.080866046
0002f0 5c 07 03 be 4c 8b 02 3e 43 70 32 be a4 9f f7 bd
       -0.12795776 0.1274845 -0.17425637 -0.12090996
000300 5e 13 30 bd 96 ac 24 3e 28 0a e7 ba 6b 96 5a 3e
       -0.04298722 0.16081461 -0.0017626928 0.21346442
000310 fe 6b 75 3d 4e 1a 19 be ea b9 5c bd 89 32 3d be
       0.059917443 -0.1495144 -0.05388824 -0.18476309
000320 b5 9d fb 3c 51 aa ad bd 81 74 63 bd 86 d4 c7 bd
       0.030714849 -0.08479751 -0.05553103 -0.097573325
000330 1d 41 8c 3e 8d 87 36 be 02 3e 68 3d bd 15 27 3e
       0.27393427 -0.17825146 0.05669976 0.16316886
000340 a1 34 49 be b3 ee 1e 3d 63 7d a1 3c d9 21 da 3c
       -0.19648983 0.03880186 0.01971311 0.026627468
000350 3f 8d 48 3e 4d a1 1f 3e 8c 25 09 be 60 d6 6a be
       0.19585131 0.15588875 -0.13393229 -0.2293334
000360 f8 88 4f be 3d ef 4f 3e 57 21 98 bd 6d d4 ce bc
       -0.20267093 0.20306106 -0.07428234 -0.025247777
000370 3a 11 08 be c5 98 e5 bc 87 2e 81 3d a3 6d 50 3e
       -0.13287821 -0.028026948 0.063077025 0.20354323
000380 63 89 d2 bd fe 56 87 be 79 1c 2c 3e dc 18 d4 3d
       -0.10280111 -0.26433557 0.16807736 0.10356304
000390 74 45 ab bd 6c 50 b7 3c fc 01 dd 3d ae 85 cd bd
       -0.083628565 0.022377215 0.10791394 -0.10035263
0003a0 44 98 2f 3c d9 60 13 bd 86 04 22 be f0 35 0e 3e
       0.010717455 -0.035981033 -0.15822038 0.13887763
0003b0 f8 c8 65 3e 75 8b 21 3e d1 c1 03 bd b9 cd d3 bc
       0.22439945 0.15775855 -0.03216726 -0.025854932
0003c0 16 ef be bd f4 7c 27 bc cf b6 fa bd be 2c 05 3d
       -0.09322946 -0.010222662 -0.12241899 0.032513373
0003d0 0e 25 08 3e 79 8d 05 be 39 9b cc bd a4 42 7a bd
       0.13295385 -0.13042249 -0.09990544 -0.06109871
0003e0 94 97 5e 3d 0c 7d a0 3d 1d 7c 0d be 68 52 25 be
       0.054343775 0.07836351 -0.13816877 -0.16144717
0003f0 2d 21 a0 3d f4 6e 4d 3d 47 1d 0a be db 7e 08 3e
       0.07818828 0.05015464 -0.13487731 0.13329642

action_network.0.bias f4 [128]
000000 c6 c2 c6 bd c6 1b 11 be e1 ed 83 bd c9 fc fc bd
       -0.09705119 -0.14170751 -0.06441856 -0.123529024
000010 1f f0 5b 3e e7 7c 52 be 36 b3 ed bc 20 e3 c3 bd
       0.21478318 -0.20555459 -0.029016118 -0.09564805
000020 29 39 4d be a8 4f 3c 3e 0f d2 84 3b a2 f1 14 3e
       -0.20041336 0.18389761 0.0040533612 0.145453
000030 cc 91 00 bd 84 7a 4b be ec b3 e7 3d d8 26 14 3e
       -0.031389043 -0.19870955 0.11313614 0.14467943
000040 b1 3f 25 be 87 11 79 3d f5 00 4c 3e 73 67 4a bd
       -0.16137578 0.06080773 0.1992224 -0.049415063
000050 8a af 23 bb 2a 73 08 3e ca 54 dd 3d e3 f6 3f 3e
       -0.0024976456 0.13325182 0.10807188 0.18746524
000060 78 c6 d1 bc 11 2f c4 3d 4d 21 46 3d 99 2d 39 3d
       -0.025607333 0.0957929 0.0483716 0.0452095
000070 64 b7 5c bd 9a 61 93 bd 31 f3 dd 3d 2e 5f a6 bd
       -0.053885832 -0.071963504 0.10837401 -0.08123623
000080 08 c1 41 bd 87 9e 3c be 16 06 89 bd 16 6b dc 3c
       -0.04730323 -0.18419848 -0.06690614 0.026906531
000090 dd 2e 0d be 00 3a 35 3d 7e c4 f2 bd 08 9c a1 bd
       -0.13787408 0.044244766 -0.11853884 -0.07891089
0000a0 4b ec f4 3d e0 00 19 be 8e 4b c8 b9 f4 4e 19 3e
       0.11959132 -0.1494174 -0.00038203265 0.14971524
0000b0 3d bb 88 bd d4 85 a8 3d 2d 34 52 be 49 e6 6a 3e
       -0.06676338 0.08228651 -0.20527716 0.2293941
0000c0 89 64 0e be c3 27 95 bc 6f 4d 22 3d 82 45 6a bc
       -0.13905539 -0.018207436 0.039624628 -0.0142987985
0000d0 af 26 9c bd 90 92 d6 3a dc be e1 3d 31 61 48 be
       -0.07624566 0.0016370583 0.11022732 -0.19568326
0000e0 21 f8 7a bd 81 1b 22 be 94 93 4f bd 5e 95 03 3d
       -0.06127179 -0.15830804 -0.05067785 0.03212487
0000f0 67 b1 53 3c ba b9 15 3d 98 86 62 bd 61 d0 9a bd
       0.012920714 0.036554076 -0.05530414 -0.07559276
000100 ef be dd bc 6e f1 e7 3d 80 5b 42 3d 53 f2 0c 3e
       -0.027068583 0.11325346 0.047450542 0.13764314
000110 33 26 4d be 9f a0 af bd 3d 6d d7 bd d1 06 b5 3d
       -0.20034103 -0.08575558 -0.105188824 0.08839191
000120 cd ee 2b be 7d 27 1a be 64 0c 4c be 92 30 44 bd
       -0.16790314 -0.15054126 -0.19926602 -0.047897883
000130 cf 4e a4 3d fe e3 26 3e 40 97 8a bd 5a 76 04 3e
       0.08022844 0.1629791 -0.0676713 0.12935773
000140 56 ba 1e be 6c ff 41 3e 28 3a cc bd cf ec 69 bd
       -0.15500769 0.18945092 -0.0997203 -0.057110604
000150 15 85 35 3d 77 ac ac bd 5c 8a 85 3d 9c 5b 15 bd
       0.04431637 -0.084313326 0.065205306 -0.03646432
000160 d4 0b 2a be 00 2e 37 be da e7 58 bd 3f f6 69 bd
       -0.16606075 -0.17888641 -0.052955486 -0.057119604
000170 4a 6c 9a bd 11 d6 b8 3d b4 90 f5 bd 9e ac fc bd
       -0.07540186 0.09025205 -0.119904906 -0.123376116
000180 50 23 35 be 38 07 ef bd 4b e5 41 3d 36 99 09 bd
       -0.17689252 -0.11671299 0.04733781 -0.03359338
000190 f7 ee fe 3d ab 58 bd bd 90 46 18 be 81 24 57 bd
       0.12447923 -0.09245428 -0.14870667 -0.052525047
0001a0 11 80 dd 3c 37 62 2b 3d ae 7c a7 3c d6 a8 44 3a
       0.027038606 0.04184171 0.020445194 0.0007501965
0001b0 3a 01 20 3e 6a 74 02 bd 33 3c a2 3d 06 3c 00 bd
       0.15625468 -0.031849302 0.07921638 -0.031307243
0001c0 47 7e 60 be 55 c0 6d be 50 5d d8 bb 89 0c dd 3d
       -0.21923171 -0.232179 -0.0066029206 0.107934065
0001d0 a4 ff 49 bd 38 64 3a bc 40 4e f0 bd c3 9e 1a bd
       -0.049316064 -0.011376433 -0.11733675 -0.037749063
0001e0 02 09 c9 3d c9 29 9f 3d 57 50 09 3e 4f 70 c5 bd
       0.09816171 0.07771642 0.13409553 -0.09640562
0001f0 5c d7 d1 bd 46 a5 0f 3e 19 cd 29 be c3 12 c4 3d
       -0.10246155 0.1402789 -0.16582145 0.09573891

action_network.3.weight f4 [128, 128]
000000 13 fd fb bc 1f a5 a5 bc e6 48 97 bc 4c 4b ea 3c
       -0.030760324 -0.020220337 -0.018467378 0.028600357
000010 ec 77 90 bd e8 49 5d 3d 00 08 7e bd db 59 a4 3d
       -0.07054123 0.05402556 -0.06201935 0.08024951
000020 10 8e a4 3d 52 17 78 3d 3c d8 e4 bd 7b 7f 73 bd
       0.08034909 0.060569115 -0.11174056 -0.059447747
000030 00 48 f9 3c 4d 4a 94 3d b7 6c fc bb d9 2d 95 bd
       0.03042984 0.07240734 -0.0077033895 -0.07284135
000040 52 52 ab 3d 62 f9 6a 3d 23 4d b6 3d 58 9a e3 bc
       0.08365311 0.057366736 0.089014314 -0.027783558
000050 d7 13 d9 bc 7c fe d6 3c 4e 03 0e 3c 77 0e 8b 3d
       -0.026498718 0.026244394 0.00866778 0.06789868
000060 74 c8 60 3d 7e 33 d3 3c f5 0c fe bc 84 97 16 3c
       0.054878667 0.02578139 -0.031012038 0.009191398
000070 f0 48 df 3d dd 08 70 3d 24 f0 30 3d 4f 02 3f 3c
       0.109025836 0.058602203 0.043197766 0.011658265
000080 ff 21 71 3d c8 99 94 3d be 5b 8b bd 62 ba ca bd
       0.05887031 0.07255894 -0.06804608 -0.09898831
000090 f9 07 3d 3b 57 a6 74 bb 0d be 57 bd d6 9a 90 bd
       0.0028843863 -0.0037330592 -0.05267148 -0.070607826
0000a0 37 0f 22 bb 72 27 81 bd b7 9d 0f 3d 38 fd a0 bd
       -0.0024728307 -0.06306352 0.035062518 -0.07860798
0000b0 61 31 9e 3d 4e 6a e0 bb 75 76 f3 3d 81 44 c7 3d
       0.07724262 -0.00684861 0.11887828 0.09729863
0000c0 01 e3 43 3c ba d1 3e 3d 3b e3 85 3d 49 c5 54 3c
       0.011955977 0.04658673 0.065374814 0.01298649
0000d0 37 41 96 3d c1 56 dd 3c 8d d0 57 bd 87 ed 2b bd
       0.073366575 0.027018907 -0.052689124 -0.04197457
0000e0 2e 87 ac bd 0a 7e 81 bd f9 9d 52 bd 49 a4 fe bd
       -0.08424221 -0.06322868 -0.051420186 -0.12433679
0000f0 b0 41 89 3d ea 64 59 3d a9 4f 93 3d d3 55 6d ba
       0.06701982 0.053074755 0.07192928 -0.00090536213
000100 3e c7 a5 3d ae ee 9c 3d 99 98 73 3d de 87 b4 bd
       0.08094643 0.07662712 0.0594717 -0.08814977
000110 05 4e a2 bd 9e 70 76 bc 92 77 72 3d c5 42 56 3c
       -0.07925037 -0.0150414985 0.059196062 0.0130774425
000120 34 13 0c 3d 68 a8 b8 bd 5b 9b 63 3d ec 10 d0 bd
       0.034198 -0.09016496 0.05556808 -0.101594776
000130 87 59 6a 3c bf 58 06 bd 71 b5 9d 3d 5a 0e 75 bd
       0.014303572 -0.03279948 0.07700623 -0.05982814
000140 cd 10 13 3d 3e 82 8a bd ba 2b 6d 3d 60 b5 6b 3d
       0.035904694 -0.06763123 0.05790303 0.05754602
000150 c5 a7 ea 3d 3f 89 e0 bd 4f cf 19 3d 1a c5 03 3d
       0.11457781 -0.109636776 0.03755122 0.032170393
000160 52 c1 51 3d 13 71 20 3d 6b 59 0d bd 91 7b 23 bd
       0.051209755 0.039170336 -0.034509104 -0.039912764
000170 e1 e3 84 3d 88 57 01 3d 0c 93 1e bd f0 e3 12 3d
       0.06488777 0.031577617 -0.038714454 0.03586191
000180 6b 82 de bd 36 0d d4 3d 50 67 2d 3c e1 84 8e 3d
       -0.10864719 0.10354082 0.010583714 0.069589384
000190 03 00 8b bd 26 f5 12 3d 1a 1a 80 bc de b1 a7 bd
       -0.067871116 0.035878323 -0.015637446 -0.08188222
0001a0 48 cb c1 3a 4f c6 d1 3d 83 ec cd 3c 52 0e e9 bc
       0.0014785314 0.102429025 0.025137192 -0.028449211
0001b0 d8 a6 47 3a a7 3c 50 bd 76 cf 69 bd 77 b0 5b bd
       0.0007616109 -0.050839093 -0.057082616 -0.053635087
0001c0 21 0d 8c bd 97 76 c1 bb 20 36 92 3d 56 25 c2 ba
       -0.06838442 -0.0059040296 0.0713923 -0.0014812152
0001d0 1c cb 07 bd 9c 09 57 3d fd ac 53 bd 90 ce 99 bc
       -0.033152685 0.0524994 -0.051678646 -0.018775254
0001e0 19 30 76 bd f0 e9 7b bd 90 36 52 3c 41 5d 60 bd
       -0.060104463 -0.061502397 0.0128303915 -0.054776434
0001f0 12 0d 8d bd ee f3 fc 3b 51 15 48 bd e6 40 d3 3c
       -0.068872586 0.0077195084 -0.048848454 0.025787782
000200 4c 31 7b bd 14 fa 3c 3d 12 67 a7 3c 95 23 98 bd
       -0.06132631 0.04613693 0.02043489 -0.07428662
000210 30 27 c4 3d ca 77 17 3c 8d 56 7f bc 11 7f 4b 3c
       0.09577787 0.0092448685 -0.0155846 0.012420432
000220 4d ad 36 bd b5 24 4c bd 4d 3e 10 3e 02 7e c2 3b
       -0.044598866 -0.049839694 0.14086266 0.0059354315
000230 50 ed ec 3d 9b 9e ab bc 58 43 7b 3d 0b 61 d4 3c
       0.11568701 -0.020949652 0.06134352 0.02592518
000240 79 69 38 3d 6e d0 fc bc 5a 84 62 3c 64 88 91 3d
       0.04502246 -0.030861106 0.0138255 0.071060926
000250 f0 6a 24 3d 9f 4b 24 bd 5c 0f 20 bd 4b fe 81 3d
       0.040141046 -0.04011118 -0.039077148 0.06347331
000260 af c0 55 bd 0b 27 ce 3d e8 eb a2 bc d3 4e b0 3c
       -0.05218571 0.100660406 -0.01988788 0.021521961
000270 d8 a6 9d bd 0f 58 9a 3c 2b 11 56 bd 86 7f cb bd
       -0.076978385 0.018840818 -0.052262466 -0.099364325
000280 bd d8 3d bd a7 01 b2 3c 1b 04 a6 3d e9 5d b8 3b
       -0.046349276 0.021729304 0.08106252 0.0056264293
000290 c8 52 41 3d 92 be 95 3d b7 14 79 3d 9e ef 0e 3d
       0.047198087 0.07311739 0.06081077 0.034896486
0002a0 55 fd 20 bd cf 39 52 3d 47 b2 b3 3d f8 b7 bb 3c
       -0.039304096 0.05132466 0.08774238 0.022914872
0002b0 f7 47 ab bc 56 a3 b4 3d cf a2 9c 3a 0b 91 c8 3c
       -0.020908339 0.08820216 0.0011950376 0.024483224
0002c0 c1 5e bf 3d 42 72 16 bd a1 d6 23 3c 6f 3b 3e bd
       0.09344245 -0.03673006 0.009999902 -0.0464434
0002d0 e8 a8 ba 3d 9a 68 93 bd fa ba c2 bd 0a ba f6 bc
       0.091142476 -0.071976855 -0.09508319 -0.030118007
0002e0 57 05 c1 3d 9b fe 15 3d e0 c2 99 3c 3c eb a8 3c
       0.094248466 0.036619764 0.018769681 0.020619981
0002f0 09 74 99 3d da 18 fa ba e3 c7 84 bd c6 e7 f4 bc
       0.07492835 -0.0019080893 -0.06483438 -0.029895674
000300 cc ea 2a bb 25 30 2e bd f1 47 b2 3c 75 23 92 3d
       -0.0026079891 -0.042526383 0.02176282 0.07135669
000310 ba e8 53 3d 72 c4 74 3d 2a 17 ad 3b 06 fa 04 bc
       0.051735617 0.059757657 0.0052823024 -0.008116251
000320 9c d8 58 bd b6 e1 86 3d 89 6a 9d bb 3a 5d 22 3d
       -0.05294095 0.0658602 -0.0048039597 0.03963969
000330 c8 de 02 3d 6e 6c 26 bd fa c8 bd bd 4b 9b 34 3d
       0.031950742 -0.04063075 -0.09266849 0.04409341
000340 aa 45 f2 3b 8b 51 67 3d 80 65 a2 3d bb 25 e5 3d
       0.0073935585 0.05647425 0.07929516 0.11188837
000350 0f 2b 93 bd a2 6b c5 3d 15 e2 a2 bd 16 5e 9a bd
       -0.07185947 0.0963967 -0.07953278 -0.07537477
000360 c4 2a 6b bd d5 06 29 3d d0 7f 63 bd f9 3e d3 bb
       -0.05741383 0.04126628 -0.055541813 -0.006446716
000370 02 9e e5 3d c9 69 d6 3d 9b 89 9d bd d1 94 ed bb
       0.11211778 0.10469396 -0.07692262 -0.0072504063
000380 7f 2a 00 bd 26 25 91 bd dc 58 47 bd 72 f0 8d bd
       -0.031290527 -0.070871636 -0.048668727 -0.06930627
000390 fc 85 e5 bc cf 03 41 bc 52 b1 cf bc ee c6 36 3c
       -0.02801799 -0.011780693 -0.025353108 0.011155827
0003a0 68 7f 13 3d da 60 a6 3d e4 81 7b 3c 54 b1 65 bd
       0.036010176 0.08123942 0.015350793 -0.056077316
0003b0 0c 84 c2 bc 60 78 69 bd c5 a7 bb bd 91 35 78 3d
       -0.023744605 -0.056999564 -0.09162859 0.06059796
0003c0 39 22 02 3d 9d 26 79 3d 0d 19 01 bd ef a8 a3 bd
       0.03177092 0.06082784 -0.03151803 -0.07991206
0003d0 ec 5d 9c bc 38 b7 a0 3d fd be 8b bd c5 a0 1b bd
       -0.019087754 0.07847446 -0.068235375 -0.03799512
0003e0 f3 86 de 3d 7a 15 05 3e 51 3a 6a bc 7a c9 c4 bd
       0.10865583 0.12996474 -0.01429613 -0.09608741
0003f0 6d 6c e2 bd fd 16 40 3c 16 01 e4 3c 3c 27 85 3b
       -0.11055837 0.011724231 0.027832549 0.004063515

action_network.3.bias f4 [128]
000000 27 d0 88 3c d5 ad 4e bd 12 01 23 3d c0 fd c7 bb
       0.016700817 -0.050458748 0.039795943 -0.0061032474
000010 9f bd 05 3c 5e 6d 9d bd 5a 65 7d bd 1e 20 54 3d
       0.008162885 -0.07686876 -0.061864235 0.05178844
000020 20 df bb 3c f6 bf bc 3b 46 0c 40 3d 3d f9 ae ba
       0.022933543 0.005760188 0.046886705 -0.0013349425
000030 25 8b 44 bd 70 9f 00 bc 63 d5 12 3d 13 dd 5f 3c
       -0.04798426 -0.007850513 0.035848033 0.013663548
000040 74 c1 1c 3d 4f 1f 9e bd 3f 55 7e 3d c5 e7 67 3a
       0.03827043 -0.077208154 0.062093016 0.0008846487
000050 ed 67 3f bc 22 ab 25 3d b5 0d 8d 3d c9 41 c7 bc
       -0.011682493 0.040446408 0.0688738 -0.024323361
000060 67 15 a7 3d d4 ed 8e bc 2d fb 9f 3d c9 d3 60 3d
       0.08158379 -0.01744739 0.0781158 0.054889474
000070 df fb 0b bc 2e 54 57 3d 87 c6 fb bc ef df 99 bc
       -0.0085439375 0.052570514 -0.030734314 -0.018783538
000080 90 aa 36 bd f8 48 0c bd 63 d7 85 3d 5d 3d 9d bd
       -0.044596255 -0.034249276 0.065352224 -0.0767772
000090 84 46 25 bd e8 70 9a 3d 36 d3 74 3d aa ad 85 3d
       -0.040350452 0.075410664 0.05977174 0.065272644
0000a0 eb a6 be 3c 48 45 05 bd a6 d8 87 bd e0 02 1c 3d
       0.023272952 -0.032536775 -0.06633119 0.03808868
0000b0 85 fa 0b 3d 77 60 b6 3c 14 5d e8 3c 79 80 ed 3c
       0.03417446 0.022262795 0.028364696 0.028991925
0000c0 25 4a a2 3d ed 73 81 3d 55 18 89 bb 5c a4 3c 3d
       0.07924298 0.06320939 -0.004183809 0.046055183
0000d0 fc 2d 49 bc 2d 25 42 bd e0 80 fb bb 1f 1b 59 3d
       -0.01227903 -0.047398735 -0.007675275 0.05300438
0000e0 b8 e9 82 3d ba aa bb ba cb 28 45 bd be 1b 6b bd
       0.063922346 -0.0014317848 -0.048134606 -0.057399504
0000f0 1b 79 3c 3d 91 82 b5 3d e3 ec 7d 3c 0c ec 8e bd
       0.046013933 0.08862794 0.015498373 -0.06978616
000100 f7 88 87 3d a9 a8 28 3d 9f 5d 87 bd ef 87 85 bb
       0.06617921 0.04117647 -0.06609654 -0.0040750424
000110 0a 95 76 bd fb 3f a2 3d 0c 30 c1 ba 84 18 3e 3c
       -0.06020073 0.079223596 -0.001473905 0.011602525
000120 df d0 3c bd da fe a4 3c 9c f4 6a bc f6 6f 7d bd
       -0.046097632 0.020141054 -0.014340546 -0.061874352
000130 6c 5e b7 bd f4 55 81 3d 73 e5 88 3d 80 17 6e bc
       -0.089535564 0.063152224 0.06684389 -0.01453197
000140 aa e4 cf 3c 5c 9e f8 bc d2 21 98 3d 9f 47 06 3d
       0.02537759 -0.03034895 0.07428326 0.032783147
000150 0f 1f 39 3d 3c f3 f7 bc 52 65 2e 3d df 23 85 bd
       0.045195635 -0.03026735 0.042577095 -0.065009825
000160 0a dc 71 3d 34 9b a2 3d 5c ca 4a bc f3 7a 6e 3d
       0.059047736 0.07939759 -0.012377348 0.058222722
000170 44 e5 a0 bb 3d 0f 80 bc b3 c6 af 3c aa 73 25 bd
       -0.004910143 -0.015632266 0.021457052 -0.04039351
000180 fa 19 98 bc 7c 5a 60 bd 03 be 8b bc 9e 99 1f 3d
       -0.018567074 -0.054773793 -0.017058378 0.03896486
000190 9b c6 87 bd f1 5f 0e bd 2b 0c 83 bd 46 fa 80 3b
       -0.06629678 -0.034759466 -0.06398805 0.003936085
0001a0 3d 7f b6 3d dc 44 a7 3b 71 18 82 3b 87 5b 2e 3d
       0.089109875 0.005104644 0.003970199 0.042567756
0001b0 80 38 49 bd ea 0b a0 3d ea a0 ae 3a da 53 e0 3d
       -0.04912615 0.078147724 0.0013323103 0.109534934
0001c0 ad b8 58 bc 12 d7 f0 bc 7d c6 59 3d aa dc 18 3d
       -0.013227624 -0.029399429 0.05316781 0.037319817
0001d0 39 e9 9e bc b5 37 95 3c ab 13 79 3d 67 14 8c bd
       -0.019398319 0.01821504 0.060809772 -0.06839829
0001e0 75 ed 47 bd a5 f9 a4 bc 46 07 b8 bd 86 b1 60 3d
       -0.04881044 -0.020138571 -0.08985762 0.0548568
0001f0 fd e8 05 3d 0b 36 68 bd 95 b3 2c bd 8a 07 57 3d
       0.032692898 -0.056692164 -0.04216345 0.052497424

action_network.6.weight f4 [3, 128]
000000 a1 81 84 3d 9d 89 c4 bc 99 4d ea bd 68 0b 83 bd
       0.06470037 -0.0239914 -0.11440582 -0.0639866
000010 dd 2c 1a 3e cc c5 ee bc b8 c0 d1 3c 2f 9d 5c 3d
       0.15056176 -0.029147051 0.02560459 0.05386084
000020 46 fc 27 bd e3 70 84 bd d3 90 8c bd e9 72 e7 3c
       -0.04101207 -0.06466844 -0.068635605 0.028253036
000030 a2 98 52 bd 4a f9 97 bd 98 db 6a bd d1 7e df 3c
       -0.051415093 -0.07420595 -0.057338327 0.02728215
000040 b4 e9 bb 3d 83 56 0a be c3 dd 55 3d 29 cf 9e 3d
       0.09175435 -0.13509564 0.05221344 0.077543564
000050 45 b8 a8 3d 00 fb be 3d 18 3d 6c 3d b2 9e 05 be
       0.082382716 0.09325218 0.05767545 -0.13048819
000060 9b 31 bb bd bc 17 31 bd 4c d0 93 3d 3d e1 fb 3d
       -0.09140321 -0.043235525 0.07217464 0.1229882
000070 56 7a e0 bb b9 f7 c7 3d 85 e6 0c 3e a9 56 84 bc
       -0.006850521 0.09764046 0.13759811 -0.016154604
000080 27 e3 33 3c df 3a af bd a4 85 95 bb 80 3d b8 3d
       0.01097945 -0.08556151 -0.0045630503 0.08996105
000090 ca 21 9d 3d 36 b4 6a 3d 1b d0 be 3d 57 fa eb 3d
       0.076724604 0.05730077 0.09317037 0.11522358
0000a0 32 18 76 3d de 92 cc bb b8 0f 9e 3d 61 e7 bc bc
       0.06008167 -0.006243094 0.07717842 -0.023059549
0000b0 03 3b 75 bd a1 66 ec bc ac ec ab 3d c4 0b 49 3d
       -0.05987073 -0.028857531 0.08394751 0.049083486
0000c0 c1 b4 89 bd f1 3c d4 bd ec 3f e0 3c b1 d4 a1 3c
       -0.06723929 -0.10363186 0.02737423 0.01975474
0000d0 68 8d 7e bd a3 e7 a2 bd ab b2 a9 bb a6 94 22 3c
       -0.062146574 -0.079543374 -0.0051787696 0.009923136
0000e0 49 0f 32 bd 1f f7 76 3d b5 56 c2 bd fd 67 65 bd
       -0.04347161 0.060294267 -0.09489194 -0.056007374
0000f0 f8 c2 e6 bd 88 33 10 bc 96 f8 9a 3c bb a2 88 3c
       -0.11267656 -0.0088013485 0.018917363 0.016679158
000100 cd 12 34 3d 5b ec 9b bc 36 b0 a0 bc d1 5e fa bd
       0.043963242 -0.019033602 -0.019615274 -0.12225116
000110 97 61 62 bd 35 53 26 3d 79 2c a5 bd 5e a2 8b bd
       -0.05526885 0.040606696 -0.08065123 -0.068180785
000120 5a da a8 bd 33 7a 54 bc 44 d1 a4 3c 96 7b 8b 3d
       -0.08244772 -0.012968588 0.020119317 0.068106815
000130 c5 ae 5b 3d ef ac ec 3b 9f 02 55 3d 26 01 a0 bb
       0.05363347 0.0072227637 0.052004453 -0.0048829494
000140 50 f5 08 3d 07 83 9a bd e9 8f 80 bc 03 da 61 bd
       0.033437073 -0.07544523 -0.015693622 -0.055139553
000150 7e 87 c2 3d 62 fd c4 bc be 21 7f bd 20 bc 61 3c
       0.09498499 -0.024046604 -0.06228804 0.013777763
000160 6e c8 8f bd 8b b6 b8 39 c5 5d 0d 3d 16 f8 e7 bd
       -0.07020651 0.0003523122 0.034513254 -0.113266155
000170 3d 45 5c bd 67 9e 7a bd be 3d 66 bd 9a 18 8f bd
       -0.05377697 -0.06118622 -0.056211226 -0.06987114
000180 48 6d 1b 3d bf 0a c7 bc 1f c2 d8 3d c2 07 42 3d
       0.037946016 -0.024297116 0.10583901 0.04737068
000190 76 56 aa 3d fe 3d 41 bd 9c 18 24 bd 20 32 f0 bd
       0.08317272 -0.04717826 -0.04006253 -0.117283106
0001a0 24 c0 b3 3d 1c fe ee bc 40 5e a3 3d 4e d5 2f 3d
       0.08776882 -0.029173903 0.07976961 0.042928033
0001b0 75 90 96 bd 7f 27 35 bd 27 04 6b bd cb 76 eb 3c
       -0.07351772 -0.04422712 -0.057377007 0.028743168
0001c0 19 07 ab 3d b1 f5 90 bd 36 89 f0 3c cf df b8 bd
       0.08350963 -0.07078112 0.029362302 -0.09027063
0001d0 d0 da 08 3e 18 ca 00 3d 87 cb 29 3d 84 a6 d6 bd
       0.1336472 0.03144273 0.041453864 -0.10480979
0001e0 34 a0 cd bd 8c dc d4 3d 01 43 56 3d a0 7d 03 bd
       -0.10040322 0.103936285 0.052309994 -0.032102227
0001f0 de 29 83 3d e7 f6 83 bc 6e c4 0d bd 40 6e 20 3d
       0.0640447 -0.016108943 -0.034611158 0.039167643
000200 1b 99 74 bc d3 9e ed 3d fa 6f 1e 3d 44 48 e0 3d
       -0.014929081 0.11602559 0.038681008 0.109512836
000210 50 1c 60 bd 6e ba bc bc 6d ea 1b bd 0f b5 dc 3d
       -0.0547145 -0.023038115 -0.038065363 0.10776722
000220 fb 79 ed 3c 61 a4 1d 3d 5a 00 ad 3d 36 b8 c5 bd
       0.028988829 0.038486842 0.08447333 -0.09654276
000230 24 9b b3 3d 92 a2 e6 bd f7 4a 35 bd c4 70 da bd
       0.08769825 -0.112614766 -0.044260945 -0.106660396
000240 d8 be 5f 3c 56 4e ae 3c a1 b3 ec ba 82 f4 cd 3c
       0.013656341 0.021277588 -0.0018058905 0.025141004
000250 04 39 b0 3d 8d f8 06 be 60 6c f9 bc 8e c2 9b 3d
       0.08604625 -0.13180752 -0.030447185 0.07605468
000260 2d c3 75 bd d5 9c 21 3d 51 e2 db bc e0 57 12 bd
       -0.060000587 0.039456207 -0.026841315 -0.035728335
000270 34 9d 4b bc ea 0d 61 bd 6b d1 4b bc 6b dd f5 bd
       -0.012427617 -0.05494491 -0.012440066 -0.12005123
000280 2e 8d ad 3d 0e 7e aa 3d 8c e8 4e ba 80 90 26 3d
       0.084741935 0.08324824 -0.00078929286 0.04066515
000290 aa 35 99 3c 54 31 25 bc 96 bc d3 3c ba 90 12 bd
       0.018702347 -0.0100825615 0.02584676 -0.035782553
0002a0 51 ed e3 bc 58 21 68 3d d7 01 af bd 2e 84 42 3d
       -0.027823122 0.056672424 -0.08545273 0.047489338
0002b0 7a cb f3 bb d4 59 71 3c 67 6b 34 bd f7 06 75 bd
       -0.007440028 0.014730889 -0.04404774 -0.059821095
0002c0 e3 cc b8 3d 4d 9b bc 3d e8 3c 17 be 0e 09 f3 ba
       0.09023454 0.09209309 -0.14769328 -0.0018542127
0002d0 25 a7 ca bc f9 3d e6 3d 34 8e dc 3d 70 64 9d bd
       -0.024737904 0.11242289 0.107693106 -0.076851726
0002e0 be 46 92 3d f1 2a 1b 3c ba 6f 82 3d e9 fc 3c bc
       0.07142399 0.009470687 0.063689664 -0.011534908
0002f0 b0 97 34 3d 7d 23 f4 bd f6 d3 92 bd 17 6c 1f 3e
       0.044089973 -0.11920831 -0.071693346 0.15568577
000300 3d f6 e1 bd 8a 3a 36 bd d7 9e bf 3d c6 30 d2 3d
       -0.11033294 -0.04448942 0.09356468 0.10263209
000310 d7 7b b9 3d 7e a4 e1 3d ac f7 35 be ed fe e1 3d
       0.09056824 0.110177025 -0.1777026 0.11034951
000320 c8 dd 8e bd 4a de e9 bc 14 67 0a 3e 76 bb 8b 3c
       -0.06975895 -0.028548378 0.13515884 0.017057162
000330 c6 5a d1 3d 3f 0c 27 3d f2 e2 b9 3c c8 93 50 3d
       0.10222392 0.040783163 0.022691224 0.050922185
000340 8d 2d b0 bb fd a6 4b bc f4 46 5f 3d 06 d1 7f 3c
       -0.005376524 -0.01242995 0.054511026 0.0156138
000350 7d c2 96 bd e1 ea bb bd 3c af 92 3d c4 66 dd bd
       -0.073613144 -0.09175659 0.071623296 -0.108106166
000360 20 0e bf bc b1 6c 2e bd 13 5b 99 bd 99 99 63 3d
       -0.023322165 -0.042584125 -0.07488074 0.055566404
000370 07 28 af 3b 71 d0 bb 3d 04 8f 8c 3b 29 43 2f 3d
       0.005345348 0.091706164 0.0042895097 0.04278866
000380 33 92 d5 bc 9f 01 c9 3c c8 fd aa bc 87 0a 1f 3d
       -0.02607069 0.024536906 -0.020872965 0.0388284
000390 e7 cb 8c 3c 13 83 ba bd f7 33 a6 3d 9a 16 25 3d
       0.017187072 -0.09107032 0.0811538 0.040304758
0003a0 bf 71 73 bc 5a 12 8b 3d b4 cf f4 bc 65 00 1b 3d
       -0.014858662 0.0679061 -0.029884197 0.037842173
0003b0 f8 f4 fb 3c a7 bf d7 bd 8d 81 06 3c 2b 59 e8 bd
       0.030756459 -0.10534602 0.008209598 -0.113451324
0003c0 36 95 30 bd 53 c9 a4 3d 66 9d 4f 3c 82 54 b9 3d
       -0.04311105 0.08046212 0.012671804 0.09049322
0003d0 64 e8 d5 3c 8a 8e f5 3b c3 70 24 bd 2f 22 a8 bb
       0.026111789 0.0074937986 -0.0401466 -0.005131028
0003e0 a1 2b fc bc e4 0a 85 bc 3c 0b 79 bc 0d f9 fd 3d
       -0.030782523 -0.016240545 -0.015200432 0.12401018
0003f0 5d ce 5c bd 36 21 dc bd 15 91 47 bb fa c3 ab bd
       -0.05390774 -0.10748522 -0.0030451466 -0.08386989

action_network.6.bias f4 [3]
000000 7f 9a 85 3d a3 d0 45 3d 77 4d 75 3d
       0.065236084 0.048294675 0.05988833
