models/raise_model.pt (torch, 79728 bytes, 5 tensors)

raise_network.0.weight f4 [128, 19]
00000000: f283 fc3c 98b6 273e 1aa7 c03b c945 833e
00000010: 8227 843d f3ae da3b 9a07 2a3e fd68 a5bd
00000020: 3453 3f3e 6d58 c8bd fbf1 613e fe41 2bbd
00000030: 9521 4dbe 08a3 3fbd faad efbb fb7d 51bd
00000040: b779 673c 1e92 7b3c a779 3b3e d816 34bd
00000050: 0222 f0bd 506f b8bd b24b 23be 591c 643d
00000060: 4951 38be 49b5 50be f57a 2cbe 14cd e13c
00000070: 0828 d8bd 0eb9 45be 26a4 b4bc c828 95be
00000080: 1851 2c3e 57f1 24be 3f50 bebd 4d36 3ebe
00000090: 8c44 f0bd 2832 94bd 6b52 d8bd bacb 2f3d
000000a0: afe7 463d d92f 3d3e 54b5 933e 68c9 063e
000000b0: ab8b 463d a1ba e63d e94b 6b3d bcc8 f8bd
000000c0: 32f2 b9bd 20de f13d 32e4 ffbd 50b6 283e
000000d0: 7833 00bd ffe2 2b3e 14a2 3dbe dd6a 35be
000000e0: 20eb d33d 41ab 1cbe 0aab c5bd b652 6e3e
000000f0: 2bd5 013e 0db9 1ebe 49f3 113e 54dd b5bc
00000100: fc5f a5bd 17db b43d 8026 debd d79c a8bd
00000110: 5791 403d c4d2 d43b 5882 ddba 929c 49be
00000120: 393e e93c 1346 7dbe 1d74 46bd be58 18be
00000130: 3811 29be de8a 123e bea6 6cbc 2cf2 cabd
00000140: 67bc 3b3e 9af1 013e 8fa5 d23d 060d fd3d
00000150: 0093 98be fbc5 a3bc 77d6 7e3d 9323 fe3d
00000160: 2407 69be 3019 acbd 762e f23d a828 e23c
00000170: 2806 283d d824 6e3e fe24 1ebe 3112 a83d
00000180: c2b3 00bc 1cf6 083e df02 4fbe ddfe 93bd
00000190: 199c 983d e3a9 33be 8305 c03c 1bb6 0fbe
000001a0: 54a9 66be 78c9 713d 229f 2dbe 886e b33d
000001b0: 3e90 80be 4725 17be 9e78 043e d726 3b3e
000001c0: b54e 2ebe 52dd 5abe f256 493d b5b2 373d
000001d0: 4d9a 2a3e 36ff 173e f233 0b3c 7872 dabd
000001e0: 7045 553c 27b4 3cbe 7a42 e9bc 8339 36be
000001f0: ae7a fcbc 429a 9ebc 72f6 7abe 88cc f13c
00000200: 295f 8e3d 9e49 263e 1b6c 41be 32bb fc3d
00000210: 1642 263c 197f fabc 5819 fabd 28fc 59bc
00000220: cc26 c2bd 480d fbbc 955d bb3d 77ed 473e
00000230: ffb5 0b3e bf4b 29be 500d 533e 4b1f 85be
00000240: 1381 8abd 36d4 c0bb 33ea 863d c3c5 473e
00000250: ee0a 32be 2b36 323e 0d84 053e 2d79 1dbe
00000260: 4c9a a1bd bf3f 37be b04e 143d fd18 4abd
00000270: 7177 8b3d ea60 b4bd f8f0 9bbd 29e0 94bd
00000280: ec51 d7bd d6f8 c5bc 7085 303e 33c9 f43d
00000290: 8274 19be 514e 9dbd 4862 1bbe baa9 303d
000002a0: b578 d33d c4b6 3abe 213f db3d 2568 85bc
000002b0: b8b9 05be cc8b 943c c823 b83d 87c5 8fbc
000002c0: 50cf 85be 94c2 6e3e b03f 45be 556a 923d
000002d0: a950 e0bd a82a e53d d688 033e c002 5ebe
000002e0: aaf0 25be 62cf 01be ac9f 113d b135 0dbe
000002f0: 478e 43be 5ba5 9ebc f55c 9d3d b202 133e
00000300: 264e 023e 7caf 0fbe 87ec 59be 135a 73be
00000310: 1805 b4bc 7ac7 bcbd 6636 44bd 541b 263e
00000320: a68b 0f3e 0a66 02bd cd35 b13d d6f2 843c
00000330: 1166 7c3e 01ba 2a3e e6d5 4a3e 92a8 21be
00000340: 5e97 0c3e 70f6 2ebe fbdf 58bd 53ff c73d
00000350: be50 7d3e 2a7c 26be 397e afbd 6b40 23bd
00000360: 7c14 1ebe 2b51 183e e0d2 cabd 585d 3bbe
00000370: 39a9 923e 30c2 a0bd 1f90 a43d 1377 343d
00000380: aeba 503e cc33 f33d b60d 11be c105 9fbd
00000390: 93ba 0c3e 7b1f a03d dc61 833d ef60 b23d
000003a0: ba84 a83d 5416 85be 355b 433d 3b5d 3abd
000003b0: a0c3 19be a7b4 2f3d c83b 17be a7f8 943d
000003c0: 9914 47be 0c52 0dbe a842 65bd cbc3 853e
000003d0: bc05 d0bd 6bd1 e23d 0315 dabd 9d30 983c
000003e0: 122a 75be 1b53 1d3d 9089 58be b411 443e
000003f0: 01f8 22be 6233 df3d f9ad 1dbe 35c7 1b3e
0.030824635 0.16378248 0.005879295 0.2563918 0.06452848 0.0066736876 0.16604462 -0.080766656
0.18684083 -0.09782491 0.22064964 -0.041810982 -0.20032342 -0.046786338 -0.007314441 -0.051145535
0.01412814 0.015354661 0.18308125 -0.043967098 -0.117252365 -0.09005606 -0.15946844 0.055691097
-0.17999758 -0.20381655 -0.1684378 0.02756361 -0.1055451 -0.19308874 -0.022050928 -0.29132676
0.1682781 -0.16107689 -0.092926495 -0.18575402 -0.11731824 -0.07236129 -0.10562595 0.0429189
0.048560794 0.18475284 0.2884928 0.13162768 0.04847304 0.112660654 0.05744544 -0.12147662
-0.09079398 0.11809945 -0.12494697 0.16475797 -0.031299084 0.16785811 -0.18518859 -0.17716546
0.10347581 -0.15299703 -0.09651764 0.23273739 0.12678973 -0.15500279 0.14252962 -0.022200264
-0.08074948 0.088308506 -0.10847187 -0.0823304 0.047013607 0.006494852 -0.0016899807 -0.19688633
0.028472053 -0.24733762 -0.048450578 -0.14877602 -0.16510475 0.14310786 -0.014444051 -0.09909472
0.18333589 0.1268982 0.10285484 0.12356 -0.29799652 -0.019991865 0.06221625 0.12409129
-0.2275663 -0.08403242 0.11825268 0.027607277 0.041021496 0.23256242 -0.15443799 0.08206595
-0.007855358 0.13375133 -0.20215939 -0.07226346 0.07451648 -0.17545275 0.023440128 -0.14034311
-0.22525531 0.059030026 -0.16955236 0.087613165 -0.25110048 -0.14760314 0.12936637 0.18276535
-0.17022212 -0.2137349 0.049155183 0.044848163 0.16660424 0.14843449 0.008496271 -0.106663644
0.0130170435 -0.18428098 -0.028474081 -0.17795376 -0.030820217 -0.019360665 -0.24508074 0.029516473
0.06951744 0.1623902 -0.18888895 0.12340392 0.010147592 -0.030578183 -0.12211865 -0.013304748
-0.09480056 -0.030645981 0.09148709 0.1952418 0.13643645 -0.16532801 0.20610547 -0.26000437
-0.067629 -0.0058846725 0.06587639 0.19509034 -0.17386982 0.17403476 0.13038655 -0.15378256
-0.07890758 -0.17895411 0.036207855 -0.049340237 0.06809891 -0.088075474 -0.076143205 -0.07269318
-0.10513672 -0.024166506 0.17238402 0.11952438 -0.1498585 -0.07680953 -0.1517421 0.043130614
0.103257574 -0.18233782 0.107054 -0.016285012 -0.13059127 0.018133067 0.089912 -0.017550243
-0.2613473 0.23316413 -0.19262576 0.071491875 -0.10952885 0.11189777 0.12845168 -0.21680737
-0.16205087 -0.12676767 0.035552666 -0.13790013 -0.19097243 -0.019365957 0.07683746 0.14356497
0.12725124 -0.14031786 -0.21281634 -0.2376483 -0.021975085 -0.09217735 -0.04790344 0.16221362
0.14018115 -0.031835593 0.0865284 0.016229074 0.2464831 0.16672517 0.19808158 -0.1578696
0.13729617 -0.17086196 -0.05294798 0.09765496 0.24737832 -0.16258302 -0.08568997 -0.039856356
-0.15437502 0.14874713 -0.099035025 -0.18297327 0.28644732 -0.07849538 0.080353014 0.04405887
0.20383713 0.11875114 -0.14165387 -0.07764769 0.13743047 0.078185044 0.064151496 0.08709895
0.082284406 -0.25993598 0.047694404 -0.045499068 -0.15016031 0.042896893 -0.14768898 0.07273989
-0.19441451 -0.1380083 -0.05597177 0.2612594 -0.10157344 0.110750996 -0.10648539 0.018577868
-0.2394183 0.038409334 -0.21146226 0.19147378 -0.15914918 0.10898472 -0.15398397 0.1521271

raise_network.0.bias f4 [128]
00000000: ddfc 31be 1f45 27be fca1 4c3d a43d 1abc
00000010: 1185 623e 4664 01be 7397 13be 5a70 04bb
00000020: 944e 573e 6da9 c6bd 7398 3bbd 3d73 a0bd
00000030: 6203 07be 6e0f 2b3d 312f 183e 817a 013e
00000040: 49b1 50bd ba54 50bd a9d0 87be 5f29 633e
00000050: 506a 9dbd 1c73 8f3b 1630 03be 96f2 893d
00000060: cee8 083b bff9 1e3d fe04 5dbe 13a2 343d
00000070: 11bc 20be fce7 f93d 6165 3f3e 1421 5ebe
00000080: 5915 953d b879 82be 0b2d 173d b634 403e
00000090: 6703 9b3d d849 5dbe 7b9c d63d 979d 683d
000000a0: c862 193e aae4 5bbe 949b f53d e220 dcbd
000000b0: 2a8a 0c3e 415f bfbd bb9f 32bd 46e6 2e3e
000000c0: 6938 aebd 191b 493e d85d 55be 63ef 2ebd
000000d0: 4d05 16be 49e9 0abd fe97 23be 00cd 15be
000000e0: 0291 4c3d c494 5b3c dffb debd cf0c 5c3e
000000f0: e74f 38bd 3f2b c53d e16a 75be 43e1 d83d
00000100: c65b 1bbe a603 e0bc aba0 92bb e221 a4bb
00000110: 15ab d4bd 7f12 213d 2160 e4bd 981a e83d
00000120: 4e67 f3bd 12e2 a33d fdea 8f3d 79c9 22bd
00000130: 3d71 923d 29bc 7abe da62 d9bd 954a 29be
00000140: 29b6 363e c412 49be 324f 623e 9abe bc3c
00000150: c0f3 8cbd f568 213e 8d73 193d 0c4a 323e
00000160: c01f 45bb bd51 5cbe d3d1 023e c0c5 2bbe
00000170: f9d8 b5bd 9784 a63d 715c 783d 6004 db3b
00000180: cac7 5abd 55b7 1f3e 74ee 353a deed e5bd
00000190: 750e 4fbe 51c6 0a3e b563 e2bd 6061 5abe
000001a0: 11a0 413e 97eb f3bc 59f4 46be 5303 93bc
000001b0: a218 e7bb 3f2d c93c bbb9 40be febc 133d
000001c0: c542 373e 86ff 213e 6e5b 0abe 671c 3d3e
000001d0: 951b 263c f33f ee3d 3168 053e 110c d73d
000001e0: c456 debd 367b 153c f849 193c 70b6 1cbe
000001f0: d729 2bbb 0687 7c3d 1edc 623e 665c 79bd
-0.17381616 -0.16334961 0.049959168 -0.00941411 0.22121073 -0.12635908 -0.14413242 -0.0020208568
0.21026069 -0.09700284 -0.045799684 -0.0783448 -0.13184884 0.04176276 0.14861752 0.12644388
-0.050950322 -0.05086205 -0.26526383 0.2218375 -0.07686293 0.004377736 -0.12811312 0.06735723
0.0020890716 0.038812395 -0.21583936 0.04409988 -0.15696742 0.12202451 0.18691017 -0.21692306
0.07279462 -0.2548349 0.03690819 0.18770108 0.07569008 -0.216102 0.10479065 0.056790914
0.14979088 -0.21473947 0.11992565 -0.107484594 0.1372458 -0.0934434 -0.043609362 0.1708003
-0.08506853 0.19639243 -0.2083658 -0.042708766 -0.1465046 -0.033913884 -0.15975949 -0.14628983
0.049942978 0.013402168 -0.10887884 0.21489261 -0.044998076 0.09627389 -0.23966552 0.1058984
-0.15171728 -0.02734549 -0.0044747195 -0.005008922 -0.10384194 0.03932428 -0.11151148 0.11333197
-0.11884938 0.08002104 0.07027242 -0.03974292 0.07150505 -0.2448584 -0.106145576 -0.16532357
0.17842926 -0.19636065 0.22100523 0.023040105 -0.06882429 0.15762694 0.037463713 0.17411059
-0.003007874 -0.21515556 0.12775354 -0.16774654 -0.08879275 0.08130758 0.060635034 0.006683871
-0.05341319 0.1559728 0.00069401343 -0.1122701 -0.20220359 0.13552214 -0.11054174 -0.21326208
0.18908717 -0.029775424 -0.19429149 -0.017945921 -0.007052497 0.024557708 -0.1882085 0.03606891
0.17896564 0.1582013 -0.1351144 0.18467866 0.010138412 0.11633291 0.13028027 0.10500348
-0.10856393 0.009123614 0.009356014 -0.1530397 -0.0026117468 0.061652206 0.2215428 -0.060879134

raise_network.3.weight f4 [128, 128]
00000000: d10b 083d f088 d0bd 825d 80bd 5062 23bc
00000010: 6c2f 263c 6897 c5bd 1bec c5bc 7b4c 7bbd
00000020: 96cd 8a3d f14d 6d3d 152e e2bc 05c9 5f3d
00000030: d485 fabc 4276 373c 6ca2 8cbd 770d c7bd
00000040: 9ee3 a7bc fb85 173d 7a3f 273d f5b9 3d3c
00000050: b2ec 09be 3914 78bd f806 c93c 07af 09bd
00000060: b4bd 373c eec3 e5bd 8651 5b3c 3198 153d
00000070: 69a9 793d 79de 893d dd53 a43d 6337 6f3c
00000080: 9e3c 633d d0eb d4bd 6706 50bd e678 36bd
00000090: e3bb debd b5b7 993c 823d beba df7b 5abd
000000a0: 5518 b5bc 17b7 593d a288 56bd 2a91 3b3d
000000b0: 0d0c 883d bf5c 51bd 6205 5abc dc8e 90bd
000000c0: 871d f13d 3ba8 dbba d415 a8bd c5ff 1f3d
000000d0: c8e3 343d c432 53bd a817 853d a8d3 56bc
000000e0: 62b5 4d3d 31e2 173d 0638 c9bd de41 d63d
000000f0: 09d2 40bb a024 2a3a 0f75 65bd 34ac 473d
00000100: 9962 cc39 1779 ad3d b8cf e4bc 9e8b 3ebd
00000110: bb6e 01bd b699 4cbd 7bd2 e33d f00a d4bb
00000120: 7236 593d 78a6 47bd 3be8 b1bb e4b2 96bd
00000130: d405 153d 5c9a 763d 7b91 d9bb 211f bf3d
00000140: ddff 563d ce0f 2dbd 651f 0fbd 1dc2 98bd
00000150: beea 56bd f3cd bc3d 2774 1d3d 06ec a13d
00000160: adbe 18bc 5b3b abbd 2ef7 8cbc 2ed5 d03b
00000170: dac1 fc3c 6d6a 8e3d 2854 403d 0b87 a6bd
00000180: 0fc7 b33a 6953 86bb 2858 ddba 5ed5 b7bc
00000190: bc4e 84bd 644c 693d 27af 29bc faf6 20bd
000001a0: 7bd9 e0bc 4d31 af3d 3537 c63c fb3f 49bc
000001b0: dd2b 21bd f666 c03b de59 0fbb bc1c d6bd
000001c0: b4fc 8b3d a3d6 f9ba 9fdc 80bd 42e3 51bb
000001d0: 6528 663d f213 5e3d dc72 91bd 4afa 5d3d
000001e0: cb68 bc3d 273a 0ebd ee37 d43d 2705 0e3c
000001f0: 6321 523d 247a 0dbd e1d2 82bd 211e 303d
00000200: 19d5 fa3c e4d8 01bd 6e02 2f3b da81 45bd
00000210: 2b70 6cbc d84c 1ebd 6881 afbd 756e 713d
00000220: 93a9 acbd 6b81 a23b bc4d 3dbd bbf1 cebb
00000230: fc3f 2c3d 1b7c 0bbc cc23 d83c 349f 19bd
00000240: c49a cdbd 921d 20bd 77ff f6bc b831 5bbc
00000250: 7e4b 5b3d 3829 2bbd 86e5 88bd a80f 9dbc
00000260: 7b84 133d 3aea 9dbd a46d e53c cd6e 673b
00000270: 68d9 b83c 96d2 4e3d 89ac 093c 1ab7 3abd
00000280: 923f cdbc 03ab dbbd 56ed 353c e312 abbc
00000290: 59be a9bd 2a49 a4bc a560 9e3d 71ea 063d
000002a0: b0e2 fa3c 9288 c1bc caf7 623d 0086 313d
000002b0: 543b 0c3d fc44 92bd 8d80 47bd a33b 41bd
000002c0: 002c 353d 17e9 393a 34ad 023d 5773 32bc
000002d0: 678c 723d 6ade b63d bb2f fdbc 86ad 133d
000002e0: 5319 b93c 84ec 27bd f508 6bbd b256 aa3d
000002f0: 2ebd d0bc 1867 6ebc fea3 99bd 37d3 8f3d
00000300: 6c3d c63c 8d31 04bd ba27 b3bd 158c 9c3d
00000310: ba09 553a 706d ddbd 97c3 9a3c 1ae5 15bd
00000320: 7375 5b3d 999a 83bd 0479 c13b e3cc a43d
00000330: b02b 903d 1a14 833d f606 293d cca7 673d
00000340: 63d4 68bc 1b95 37bd 6877 90bc aea8 48bd
00000350: 1c23 f93b 8dc5 bfbc 1df2 b73c a9b3 4dbb
00000360: 98f1 283d 158f a73d bdaf e4ba 48ad a7bd
00000370: 684a b53d b5ee 1c3d f90e 26bd b7d6 71bd
00000380: 6e31 21bd 7512 3f3d f8f2 423d 6d3b 0ebd
00000390: cdd4 6d3c 64e6 94bd 7d1d ba3d 61af 23bd
000003a0: 27ef 61bd 3992 8fbd 10e0 9ebd 9298 7dbd
000003b0: 67b0 7ebd 176f 4e38 d903 6f3c 0c34 93bc
000003c0: 965d 58bc f9fa 2f3b 22e2 8d3b 5a85 cdbc
000003d0: 0561 16bd dd0f a53d b7ea 89bd cab3 e83c
000003e0: a6f3 bbbb 6eac 41bc 2fa7 6ebc f48b 343d
000003f0: 0bfe 8fbd 0ebb 83bd 5a5f 993d a812 033c
0.033214394 -0.10182369 -0.06267835 -0.00997217 0.010143142 -0.09648019 -0.024160435 -0.061352234
0.06777494 0.05793566 -0.027609864 0.054635067 -0.030581392 0.011197628 -0.06866917 -0.09719365
-0.020494279 0.036993008 0.04083202 0.01157998 -0.13469198 -0.06056616 0.024539456 -0.033614185
0.011214662 -0.11219011 0.013386136 0.036522094 0.060952578 0.067318864 0.08023808 0.014600608
0.05547773 -0.1039654 -0.050787356 -0.04454889 -0.1087568 0.018764356 -0.001451418 -0.05334079
-0.022106329 0.053153124 -0.052376397 0.045792736 0.066429235 -0.05111384 -0.013306947 -0.07058498
0.1177321 -0.0016758511 -0.082072884 0.03906228 0.04416254 -0.051562086 0.06498653 -0.013111986
0.05022181 0.037080947 -0.09825139 0.10461782 -0.0029422066 0.0006490443 -0.05601984 0.04874821
0.00038983373 0.08470362 -0.02793108 -0.046519868 -0.03159974 -0.049951278 0.1112413 -0.0064710304
0.05303044 -0.04874274 -0.0054292954 -0.073583394 0.03638251 0.060205802 -0.006639657 0.09332109
0.052490104 -0.0422514 -0.03494205 -0.07458899 -0.05246996 0.09218969 0.03844085 0.07906346
-0.009322804 -0.083609305 -0.017207708 0.0063730692 0.030854154 0.06953893 0.046955258 -0.08131226
0.001371594 -0.0040992987 -0.0016887235 -0.022440609 -0.0646033 0.056957617 -0.010356701 -0.039298035
-0.027447453 0.08554325 0.024196247 -0.012283321 -0.039348472 0.005871649 -0.0021873633 -0.104546994
0.06835309 -0.0019061159 -0.0629208 -0.0032026325 0.056190867 0.05421824 -0.07101986 0.054193772
0.09199675 -0.034723427 0.1036223 0.008668221 0.05130137 -0.03454031 -0.06387878 0.042997483
0.030619191 -0.031700984 0.002670433 -0.04821954 -0.01443104 -0.038647503 -0.08569604 0.05894323
-0.08430781 0.0049592755 -0.04621671 -0.0063154376 0.042053208 -0.008513476 0.026384257 -0.037505344
-0.10039285 -0.0390907 -0.030151112 -0.013378553 0.05353879 -0.041787356 -0.06684403 -0.019172505
0.036015015 -0.07710691 0.028006382 0.0035313845 0.022564605 0.0504938 0.008402952 -0.045584776
-0.025054727 -0.10725977 0.011103949 -0.02088303 -0.08288259 -0.020054419 0.07733277 0.032938424
0.030625671 -0.023624692 0.05541209 0.043340683 0.034236267 -0.07142064 -0.04870658 -0.047176015
0.044231415 0.0007091923 0.03190346 -0.010891757 0.05921593 0.08929141 -0.030906549 0.036054157
0.022595083 -0.040997043 -0.05738159 0.08317317 -0.025480833 -0.014550947 -0.07501982 0.07022708
0.02419921 -0.032273818 -0.087478116 0.07643906 0.00081267545 -0.10811889 0.018892093 -0.03659544
0.053578805 -0.064259715 0.0059043188 0.080468915 0.07039583 0.064003184 0.041266404 0.056556508
-0.014210793 -0.044819932 -0.017635062 -0.04898899 0.0076030623 -0.02340963 0.022454316 -0.0031387603
0.041246027 0.081815876 -0.0017447394 -0.08187348 0.088520825 0.038313586 -0.040541623 -0.05904266
-0.03935378 0.04664846 0.047594994 -0.03472464 0.014516068 -0.07270506 0.09087656 -0.039962176
-0.055159714 -0.07010312 -0.0775758 -0.06191308 -0.06217995 4.9217688e-05 0.01458832 -0.017969154
-0.013205906 0.0026852472 0.0043299356 -0.025088001 -0.03671362 0.08059666 -0.067342214 0.028406043
-0.0057358323 -0.011820896 -0.014566227 0.044078782 -0.07030877 -0.06432162 0.0748889 0.008000053

raise_network.3.bias f4 [128]
00000000: 134b 26bd 0f01 aebd 93ac 81bd 9564 3dbc
00000010: 4a7f b83d 2476 1b3d 9e14 a0bd cd38 583d
00000020: e76a 4cbd 12f9 97bd ffb6 98bd 43bb b53c
00000030: 631e 3e3b ad1d 7b3d 67c6 893d 8a5d e1bc
00000040: 450f 7d3d b0b2 00bd d503 073d af08 7a3d
00000050: b6b2 7a3c 9a40 87bd bd2c 393d 15e0 ad3d
00000060: 2264 cf3c ef4b ad3d 9c3f 4b3d fe81 553d
00000070: e84f 323d 8c8e a73c 5eca a03d 3962 97ba
00000080: 2c7d e63c ce62 5dbb c71a 4b3c 9420 243d
00000090: f61a 6dbd d7cb debc 8251 d03d c18d 8abd
000000a0: ecc0 ce3d 3a07 ce3d 5688 2abd a6b0 573d
000000b0: 3f20 54bd 8af5 9bbd 37ac 943d bf78 3c3b
000000c0: bd45 36bd b415 403d 8998 9e3c 8999 b8bb
000000d0: 8a8d 90bd 79e2 233d 79f5 993d 3c8b 973d
000000e0: e23b ee3c ded9 853d 1a70 cf3b fb37 0b3d
000000f0: e96d 823d 81dd 66bd df75 523d dec1 8a3d
00000100: 78f1 e23c eaef 623c f9df cc3d e646 603b
00000110: 6c1b 103b 32a1 59bd cc53 4a3d d35c 6d3b
00000120: 1dfb 54bc 4464 9d3d 6e91 613d cdb9 58bd
00000130: a265 9cbd 1f3d 8cbd 9dab 93bd 13f3 1d3d
00000140: 306b b43d 53ba a9bc 89b6 20bd 5a73 093d
00000150: 2cf4 403d 5b68 46bd aa48 40bd 9de7 37bd
00000160: 8b0d 6abd 526d 533d 73ce 733c 2b91 7abc
00000170: f685 dd3c 020d 3e3d beaf 89bd a1bd 47bd
00000180: 10d8 5e3d ada9 433d a568 17bd 18ad c23c
00000190: c485 10bc 1c70 893c 977c 8abd 21e7 babd
000001a0: 01e7 afbb 7991 993d 738d 4dbd 3e5b 82bd
000001b0: 71c3 51bc 2235 183d 1a56 543d a917 b8bc
000001c0: eeda 39bd e6b8 e23c 8b0d 813d 50bd 46bc
000001d0: 0fd6 6f3d 33e9 dfbc d5d8 3cbd 0152 e8bc
000001e0: a769 963d f342 dcbc e864 65bd f487 083d
000001f0: 8012 473c b1b0 32bb 0911 633d 40a2 ec3c
-0.04059894 -0.08496296 -0.06331744 -0.011559625 0.090086535 0.037954465 -0.078164324 0.052788544
-0.049906638 -0.07420553 -0.07456779 0.02218402 0.002900981 0.061307598 0.06727295 -0.027510423
0.06178214 -0.03142041 0.03296264 0.061043438 0.015301397 -0.06604119 0.04520868 0.08490006
0.025316302 0.08461749 0.04962121 0.052125923 0.043533236 0.020453714 0.078510985 -0.0011549658
0.028135858 -0.0033780816 0.012396521 0.04007013 -0.05788704 -0.027196808 0.101717964 -0.06765319
0.10095391 0.10059972 -0.041633926 0.0526587 -0.051788565 -0.07615192 0.0725941 0.0028758494
-0.0445001 0.046895698 0.019359844 -0.005633537 -0.070582464 0.040010903 0.07517523 0.07399604
0.029081289 0.065356955 0.006330502 0.033988934 0.0636862 -0.056363586 0.051381942 0.067752585
0.027703032 0.013851145 0.10003657 0.0034221946 0.0021989 -0.053132243 0.04939632 0.0036218658
-0.012999323 0.0768514 0.055070333 -0.05291157 -0.076365724 -0.068475954 -0.07210467 0.03856189
0.08809507 -0.02071873 -0.03923658 0.033557273 0.04710786 -0.048439365 -0.046944298 -0.044898618
-0.05714182 0.051617928 0.014880764 -0.0152934 0.027041417 0.046399124 -0.06722973 -0.04876483
0.054405272 0.047769237 -0.03696503 0.023764178 -0.008820955 0.01677709 -0.06762045 -0.091261156
-0.005368114 0.0749845 -0.050183725 -0.06365059 -0.0128029445 0.037160046 0.051839925 -0.02247222
-0.045374803 0.027676057 0.06301411 -0.012130097 0.05855375 -0.027332878 -0.046105225 -0.028359415
0.0734437 -0.026887393 -0.056004435 0.03333278 0.012150407 -0.002726596 0.055436168 0.02888596

raise_network.6.weight f4 [1, 128]
00000000: c67f c23d c714 403d 4044 00be e704 c43c
00000010: 2f30 493d e84f 91bd 06ab 043e 9185 1d3e
00000020: cf23 35bd 164c 673d 3c7b 7ebc dc1c acbd
00000030: fefb 0a3d 6137 8fbd e824 13bd 5e4d 813d
00000040: a636 7dbd b3d4 ddbd 6263 f5bc c6ee 823d
00000050: 8831 413d 5204 b0bd 570b 5cbd e3f2 a0bd
00000060: 8f6c a43d daab c3bd 7feb 4b3d 17d2 a8bd
00000070: 4f53 10bc 093d a8bd 4816 66bd b4aa 8b3d
00000080: 9998 06bb 231b 403d 96b8 973d ef74 c73d
00000090: 216f ac3d 904b 093d 8a8a 61bd d3f3 ff3d
000000a0: 8658 4dbd 76b3 543d 6a01 0f3d 15a7 9dbd
000000b0: e83f 6abd e6a5 973d b94b 4d3d 7d53 a83d
000000c0: 7f05 db3d f762 d6bd 3d86 31bd dbd7 3c3d
000000d0: da00 10be 550d f93c e06d a1bd 1d94 abbd
000000e0: 686a 333d 197a a13d c60f c13d 338d 67bd
000000f0: 4aff 863d 200e a73d bdbd 97bd 25a1 b33c
00000100: 1ca6 d7bd 9ab3 f33c 1a90 9fbd 403f d43d
00000110: b807 d2bd d309 a23d c3c8 f43d d0dc 75bd
00000120: 8597 ad3d b684 9abd 5751 bbbd cae1 533d
00000130: 1067 773d 69b4 b1bd c1c3 83bd 520a cbbd
00000140: 10a4 ffbd 4668 cf3d 64ea a33d 6750 f33c
00000150: 1755 36bd 4ce6 923c 9012 fbbd 8203 99bd
00000160: 4a3d acbd f077 0dbd 782e 8fbd 8a28 3abd
00000170: c3f3 9abd a769 713d f395 b6bd 3fc6 8e3d
00000180: 69d9 9ebd 9ada babd 386a e8bd 5dfb 86bd
00000190: 590a bf3d 739c f73d 6632 6bbd 9bad 183d
000001a0: 2bcd b4bd e2b8 21bd 0c2d 8cbd 68ed b53d
000001b0: 84b1 dc3d 94b0 d53d 67b3 813d c8a0 033d
000001c0: c519 993d 8805 82bd ed96 10be 0ff1 493d
000001d0: 1713 503d 7f5d a63d ad15 633d aa27 8d3d
000001e0: 0515 a43d 2cd1 c83d 7b24 b03d 9398 94bd
000001f0: 40cf 8c3c e87f d23d 9646 d63d 592f 3b3d
0.09497027 0.046894815 -0.12526035 0.023928119 0.049118217 -0.07095319 0.12955865 0.15382983
-0.044223603 0.056469046 -0.015532311 -0.08403942 0.033931725 -0.069929846 -0.03592387 0.06313585
-0.061819695 -0.10831585 -0.029954616 0.06393199 0.047166377 -0.08594574 -0.053721752 -0.07858827
0.080285184 -0.095542625 0.049785133 -0.082431965 -0.008808925 -0.082147665 -0.056173593 0.068196684
-0.0020537733 0.04690088 0.07408254 0.097391 0.08419634 0.033519328 -0.05506376 0.12497678
-0.05013325 0.05192896 0.034913458 -0.07697884 -0.057189852 0.074046895 0.050121043 0.08219049
0.10694408 -0.10468095 -0.04334091 0.046104293 -0.14062825 0.030401865 -0.07882285 -0.0837786
0.04380265 0.078846164 0.09426837 -0.056531142 0.06591661 0.08156991 -0.074092366 0.021927426
-0.1052973 0.029748727 -0.07791157 0.103636265 -0.102553785 0.0791203 0.11952355 -0.060025036
0.08476166 -0.07544844 -0.09146374 0.051729 0.060401022 -0.08676989 -0.064338215 -0.09914078
-0.12482464 0.101273105 0.08003691 0.029701425 -0.04451474 0.01793208 -0.122594 -0.07471372
-0.084101275 -0.03453821 -0.06991285 -0.045448817 -0.07566025 0.05893865 -0.08915319 0.06971406
-0.077563114 -0.09123726 -0.113483846 -0.065909125 0.093281455 0.12090387 -0.05742111 0.037274938
-0.08828195 -0.03948296 -0.068445295 0.08883172 0.10776046 0.1043407 0.063330464 0.032135755
0.07475618 -0.06348711 -0.14120074 0.049302157 0.050799455 0.08123302 0.055440594 0.06892331
0.08011822 0.09805521 0.08600708 -0.07255664 0.017188668 0.102783024 0.10462682 0.04569945
