models/simple_model_balanced.pt (torch, 22292 bytes, 6 tensors)

model.0.weight f4 [64, 8]
00000000: 78cb bc3d 0af9 e73d 0949 50bf d777 64be
00000010: 7efd 3b3f 1a00 493e 6490 9f3e 7620 88be
00000020: 6f7b a0be 6c80 83be 907e 9ebc b065 e03c
00000030: 1e20 5d3e 250d 51be 03e1 b3be 0669 4e3e
00000040: 1959 f63b e7cf 6e3e 4ebf b73d 27de 5e3e
00000050: 0aaf 133e 80fb 85bd 50b6 bb3c d8ac 373d
00000060: 99c7 8dbe 26e9 e0bd 8a6d 8e3e 6b37 c7be
00000070: 08e3 033d 523e 013e 7ed1 9c3e 4cf5 883e
00000080: 9640 8c3d f0f8 8b3e 7297 79be 2dd3 4fbe
00000090: 184b b23e b86e 2ebe c95b 353d 6f25 cfbd
000000a0: fb11 663e 785a 7d3e 9ef4 aa3e a161 ba3d
000000b0: ddbe 05bf 00a7 d3ba 7cfb de3d 8417 cfbc
000000c0: 3425 92bd 1ff7 63bd 67ea a23e 1d79 f93d
000000d0: e3ee 30be 0878 a7bd 30a9 bc3d f34e 7d3e
000000e0: 85bb b3be 2819 e6bd d3ee 9ebe f007 bdbd
000000f0: 1dc8 7abe 3fa7 8e3e b2d5 8bbe 2ad7 4e3e
00000100: 5a10 b0be ebdb 82be e397 d1bd ea9c 51bd
00000110: d825 a9be da3c 3d3e a1a0 203d 34c0 a53e
00000120: aed4 81bc 6777 7abe ada6 2a3f 6064 c9bc
00000130: a9c9 cfbe 8ee3 0fbe a2f0 48bd 6872 b3bb
00000140: 1404 c6be 5b06 b6be 7e1a a5bd ef5e 83be
00000150: 0275 92be b4dc 8c3d a62f e13d adaf b83e
00000160: cccf 5b3e 3299 12be a131 c13e 016c 28be
00000170: 1998 1c3e a559 4fbe de2b f9bc de97 243e
00000180: 183d 86bc 0be1 a03e 9028 ec3e 24b2 45be
00000190: 4e89 29be ccfd 20be 2030 d33e 0bd5 3d3d
000001a0: b444 8c3e c6f8 49be e5be 02bf 1c8e 6e3d
000001b0: 4ff3 2fbe 8ea0 93be 1be6 5abe 9c6d 80be
000001c0: 338e 84be 40b1 0c3e 1477 893e 23b2 ab3e
000001d0: 5b48 b6bd bd9b 05be 3f0c 35be e04f 88be
000001e0: 3441 873c 2c76 e83d b9f0 05bf 1fac 323e
000001f0: 8801 023e b267 263e ea63 a93c 25da 943e
00000200: c225 283e 3314 433e b889 be3e a6c9 f33d
00000210: d3ba 92be 1e95 6dbe e237 7ebe 2dc2 7c3e
00000220: 448c 553e 826d e9bc dcdb 2cbe fad8 79be
00000230: 6be1 a8be 3899 0e3d 29f5 843e 90d8 35be
00000240: c455 273d b3a7 0c3e c469 43bf 1fbc 2a3d
00000250: bb17 d73e 5f62 66be d5c6 493e 8a41 923e
00000260: a336 943e 2445 d83e 708c 60bc 03c7 94bd
00000270: 7c50 3cbc 07e0 833e de06 6d3e 2b9d 53be
00000280: e2be 103d a43b 11be ef08 52bf 28d5 853d
00000290: 52e3 033f cee9 dcbd 34c9 d43d 293e e4bb
000002a0: 281f 7bbd f05c 9abc 04f2 86bd 9066 20bd
000002b0: 1013 583d c20e 2a3e 9856 cf3d 1872 a5be
000002c0: b5a3 163e 23bb 7d3d f0cb 943e 7052 443e
000002d0: 809f 833e 2f2b 0abe 0384 cb3d 8521 ecbd
000002e0: db8c 543d 25d2 87be c8ed c5bd a030 a13e
000002f0: 7a59 e73e 4062 acbe ee31 6fbe 1a9d 53be
00000300: e705 f0bd 983d f03d 81d2 06bf 80e7 e9bd
00000310: ad8a 2e3f 80cd 6a3d 17de 1d3e 87b6 69be
00000320: 8450 2cba 41e2 023d 9e71 a53e b10d 983e
00000330: 97c2 243d 1782 833e 3300 353e 1f0f 8fbe
00000340: 043d 973d a84b 3ebe 3131 1e3d 42ed 97be
00000350: 6800 453e 9c92 8fbe a3dc 17bd 4b06 a03e
00000360: 18f5 a43d 1fbd 853e cf6c 9c3d e95d b7be
00000370: c3a6 873e a324 8fbe 526d ecbd 6ca8 513e
00000380: 9fa2 79bc 6d50 483e 4309 703e 6ec5 b0bd
00000390: 592c acbd 280d a7bd 1120 1d3e bbe0 903e
000003a0: ee49 9bbe 7d67 3cbe c183 8fbe 9035 ce3d
000003b0: 90f8 1fbd c8a0 82bd 4885 74be 5c22 5fbe
000003c0: efaa abbe 45c7 0b3e cbff e0bc ed99 253e
000003d0: cffb 9c3d 2ee5 26be 0431 313e 9a2e b53e
000003e0: 6c34 1e3e fe7f 06bb ed2d 7fbe bf5c 4abe
000003f0: d61e 1d3e c884 7f3d eb0a 85be dfa3 993d
0.09218496 0.11326797 -0.8136144 -0.2231134 0.73433673 0.19628945 0.3116485 -0.26587266
-0.31344172 -0.25683916 -0.01934746 0.027392238 0.21594283 -0.2041517 -0.35132608 0.20157251
0.0075179455 0.23321496 0.08972035 0.21764432 0.14422241 -0.065421104 0.022914082 0.04484257
-0.27691343 -0.109819695 0.27817947 -0.38909468 0.032198936 0.1262143 0.3062858 0.26749647
0.06848256 0.27338362 -0.24374178 -0.20295401 0.34822917 -0.17034423 0.044276986 -0.10114562
0.22467797 0.24741542 0.33389753 0.091006525 -0.5224436 -0.0016147792 0.108878106 -0.025279768
-0.07136002 -0.055655595 0.3181946 0.12181304 -0.17278628 -0.08177191 0.092119575 0.24737148
-0.35104004 -0.11235267 -0.31041583 -0.092300296 -0.244904 0.27861974 -0.27311474 0.20199266
-0.34387475 -0.2555841 -0.10234048 -0.051175036 -0.33036685 0.18480244 0.039215688 0.32373202
-0.015848484 -0.24459611 0.6666058 -0.024583995 -0.40583542 -0.14051649 -0.04905761 -0.005476285
-0.38674986 -0.35551724 -0.080616936 -0.25658366 -0.28604895 0.06878033 0.10995416 0.3607153
0.21465987 -0.14316252 0.37733176 -0.1644745 0.15292396 -0.2024904 -0.030416425 0.16073558
-0.016386554 0.31421694 0.46124697 -0.19306237 -0.16556284 -0.15721816 0.41247654 0.04634575
0.27396166 -0.19723806 -0.5107253 0.058240995 -0.17182659 -0.2883343 -0.21376841 -0.25083625
-0.2588974 0.1373949 0.26848662 0.33534345 -0.089005195 -0.1304769 -0.17680453 -0.2662344
0.016510583 0.113506645 -0.5232044 0.17448471 0.12695897 0.16250494 0.020677526 0.2907268
0.16420653 0.19050674 0.37214446 0.11903696 -0.2865816 -0.23201415 -0.24826005 0.24683447
0.20854288 -0.0284946 -0.16880745 -0.24399176 -0.3298448 0.03481409 0.25968292 -0.17758393
0.040853277 0.13735847 -0.7633326 0.041683313 0.42010292 -0.22498463 0.19704755 0.28565627
0.28947935 0.4224025 -0.013705358 -0.07264521 -0.011493798 0.25756857 0.23147151 -0.20665424
0.03533829 -0.14182907 -0.8204488 0.06534797 0.5151874 -0.10786782 0.10389939 -0.006965418
-0.06130901 -0.018843144 -0.065891296 -0.03916031 0.052752554 0.16607192 0.10123938 -0.3231361
0.14710887 0.061946046 0.29061842 0.19172072 0.25707626 -0.13493036 0.099372886 -0.11529831
0.051892143 -0.26527515 -0.09664494 0.3148241 0.45185453 -0.3366871 -0.2335889 -0.20665398
-0.11719876 0.11730498 -0.52664953 -0.11421108 0.6818035 0.057324886 0.15416752 -0.22823535
-0.0006573277 0.031954054 0.32313246 0.29697946 0.040224638 0.25685188 0.17675857 -0.27941224
0.07384685 -0.18583548 0.03862113 -0.296732 0.19238436 -0.28041542 -0.03707565 0.312548
0.080545604 0.2612085 0.07637941 -0.35813835 0.26494417 -0.2795764 -0.11544289 0.20474404
-0.015236526 0.1956193 0.23441033 -0.08631407 -0.08406896 -0.08156806 0.15344264 0.28296456
-0.3032984 -0.18398853 -0.28030208 0.1006881 -0.039055407 -0.06378323 -0.23878968 -0.21790451
-0.3352885 0.13650234 -0.027465722 0.16172 0.07665216 -0.16298363 0.17303854 0.35387117
0.15449685 -0.0020523067 -0.24919863 -0.19761942 0.15343794 0.06238249 -0.25984892 0.07501959

model.0.bias f4 [64]
00000000: ec9e 49be 2086 10be 2769 cd3e be23 313c
00000010: 02c3 79be c6a1 ae3d 3aa5 b03e 38c4 00bd
00000020: 3b01 c23e 6d9a a6bc a01c d43e 3245 4b3e
00000030: 4acf d23d 13d7 373e 9916 173e ea34 48bb
00000040: 23e2 44be 241e fe3c 7d9c a9bd 464f 4abe
00000050: 7422 f93d e2e7 2dbe 2c4e 2cbe 6711 413e
00000060: 84ba 713e dec9 b83e ccd2 613e 8f75 b13c
00000070: d591 db3d 4084 c1bd 8642 343e 4da1 9c3e
00000080: 3bac 9b3e 3ff8 aa3e feae 22bc 2a3b 18be
00000090: 04b7 c0be 57b6 a03e 0936 c53e ff18 1bbe
000000a0: 854b 1d3e 433f c63d 54cb b8bd ebbe 6cbd
000000b0: 294f 5bbe 7656 1dbe 0373 913c 722c 9f3e
000000c0: 8019 3f3e 531e 5e3e 065d ac3d fc04 06be
000000d0: f2d1 b13e bf31 d33c fb14 31be 65b9 8e3e
000000e0: 8538 9fbe 3aa1 5abe 1468 3abc 000f bb3d
000000f0: ba55 6b3e 0ba1 f83d 2335 b63e 19d4 853e
-0.1968953 -0.14113665 0.40119287 0.010811744 -0.24390796 0.085269496 0.34501058 -0.03143713
0.37891564 -0.020337308 0.4142809 0.19850615 0.102934435 0.17953138 0.14754714 -0.0030549117
-0.1922689 0.031020232 -0.08281801 -0.19756803 0.121647745 -0.16982988 -0.16826695 0.18854295
0.23606306 0.36091512 0.22053069 0.021662502 0.10721175 -0.09449053 0.17603502 0.30591813
0.3040484 0.33392522 -0.009929417 -0.1486632 -0.3763963 0.31389114 0.38517788 -0.15146254
0.1536084 0.09680035 -0.09023157 -0.05779926 -0.21416916 -0.15365013 0.017755037 0.31088597
0.18662071 0.21691255 0.0841618 -0.13087839 0.34730488 0.025780557 -0.1729316 0.2787582
-0.31097808 -0.21350566 -0.011377353 0.091337204 0.22981921 0.121400915 0.35587415 0.2613838

model.2.weight f4 [64, 64]
00000000: b419 55be 20bf fdbb 14a9 023b 688f c43d
00000010: 84fe d5bd ba4a 80bd 3ffb 00bd 5a2a 953d
00000020: 2e89 603e 63d3 92be 899e 3c3e 159e e9bc
00000030: 170b d7bc 8d52 273e 0c49 fb3d 4f09 173e
00000040: 0e2c 79bd ad3b bdbc e1a1 d1be 66f5 4abe
00000050: 952d 5dbd e819 e7bd e508 1bbe 9410 91bd
00000060: 7f7e 5dbe a8ed c33d cfb9 19be c2ae 31be
00000070: d0ca 20bd a4c4 15bd 3004 273e 8e45 8b3d
00000080: 300d 203e 5dcb bcbd d223 d23e 0213 003d
00000090: 1105 82be c4d4 de3d a90f 46bc a85f a63d
000000a0: f6c2 943d 5648 a93d 3001 52bc dbb0 623c
000000b0: 368c d03d 0725 fd3d bf6c 783d 630f ff3e
000000c0: 005a d03d 0c14 dcbd b24a 12be c093 5f3c
000000d0: 3814 3c3e 5666 c13d 853c e43e 1d14 92bd
000000e0: 322f b4bd 71ab d8bd e2a8 053e 39c9 47bc
000000f0: bc0e 97bd b447 223e 5724 2fbe cbda 313e
00000100: c422 52bd 72b7 b63d a762 13bd 88aa 003e
00000110: e69b 273d fc35 3a3d 6995 a73b b077 383c
00000120: 549b 033f b62f 19bf 9920 043f d02b 7c3d
00000130: 95eb 013e de27 033e 9a4c a43d b0c4 f2bd
00000140: 09eb fd3d 179a e4bd 0f8b 0bbe 58ea eabb
00000150: 1842 1ebe 3ad9 c53d 9374 f0bd bdd6 2fbb
00000160: 848d bebe f92e e53c ab40 fb3c 24af bd3d
00000170: 01e6 f23d 4086 09bd f90f 0b3d a0f8 e6bd
00000180: b7b3 383d 88cd 973d 0d98 913e 75e7 9ebc
00000190: 88f7 edbd 7ccb 913c 325d 61bd 9aae cfbd
000001a0: 51d5 8e3d 189f 5e3d 1a31 b23d 0fa5 f03d
000001b0: 00e8 6e3c 2150 703d 6c18 163e 2029 2abe
000001c0: feca 033e f179 c13c 9e31 743c 9c39 11bd
000001d0: 8d14 b03c d5e4 a8bd a2d1 d73d 7881 b03d
000001e0: decf 5c3d 06c1 9dbd c6ea c4be 7231 ecbc
000001f0: 3e62 c63d d6cc c03e c4bb 543d a053 343e
00000200: 99cf 9abc a000 2d3c cfe8 483d 009f 5dbc
00000210: b4aa 6fbd e7f9 a8bd 925e 10be 6837 f53d
00000220: 20b5 94bb d05a debd da0e 8c3d a018 c9bc
00000230: ee2d e3bd 9a72 3cbd 03bb 323d 0d02 7cbc
00000240: 00a0 293c f4dd bcbd a9bd 90bd c845 bd3d
00000250: 3860 b8bc 883c d13c 8fd5 3b3d 703a b3bc
00000260: 116d 783d de48 ffbd 8639 cdbd 58c3 89bd
00000270: 6a0d c2bd 14e8 d0bd 2a06 ac3d 71d8 a0bd
00000280: 5094 14be 89b4 683d 358c 9a3d d7e9 a5bd
00000290: 94a6 9abd 4c60 d9bd a990 533d e023 043d
000002a0: 335c 5dbd c709 0c3d 0c04 56bd bbde e0bd
000002b0: c091 cc3d 74d3 4a3d 47a4 c1bd 906b 543d
000002c0: 1027 58bd 44d7 ad3d 906b 9abd 4821 f4bc
000002d0: ee0d a73d 60c8 ebbd 183b 04be cb1c 7b3d
000002e0: 5e1b a5bd b81e b5bc 202f 1dbd 72dc f6bc
000002f0: 0581 07be 5c24 573d f113 093d 6218 c7bd
00000300: 9838 66be 8ae0 b43d 49fc b63d 264a c43d
00000310: d6e8 af3d 794b febc dd99 8bbd e2ef babd
00000320: 1afa 0b3f 022e 3abf 1a86 043f a2ce 043e
00000330: 4860 c13d 726c fabd ef80 00bc 56cc b6bd
00000340: 8b36 df3d 6f83 29bd 6210 2dbe cbf5 c03d
00000350: ace8 f6bc 6020 4fbd 3ee7 873c 29dc e3bd
00000360: 2024 94be 3dde 1c3b 1464 8538 f441 a13d
00000370: 82da fdbc 9430 fc3d f59e b83b d293 6b3d
00000380: 75be 2e3d 69dc 093d c528 5e3e ffd0 11be
00000390: 7a24 8cbd 380b fb3d 9980 abbd 38dd 8a3c
000003a0: b30a ddbc 1e59 ec3d 900e 763c 0934 12bd
000003b0: 90ea 0fbc 1b21 3a3e 57f0 8ebc 6687 823d
000003c0: 32a4 9e3d 72b9 cebb 83cd db3d 3035 bcbc
000003d0: 67d2 263e 2da8 47bd 38f9 543e 15c0 a1bb
000003e0: fb37 353d 1f0d 04be 37d5 6dbe 47ea 99bd
000003f0: 9d48 7cbd 3a90 d13e 0abb 2d3e 3244 1d3e
-0.20810586 -0.007743731 0.0019937204 0.09597665 -0.10448936 -0.06264253 -0.031489607 0.072834685
0.2192733 -0.286769 0.18419851 -0.028517762 -0.026250405 0.16340084 0.12269792 0.14749645
-0.06083303 -0.023099745 -0.40943816 -0.19820175 -0.05399855 -0.11284238 -0.15140112 -0.0708324
-0.21630286 0.09566814 -0.15012287 -0.17351821 -0.039255917 -0.036564484 0.16310191 0.06800376
0.1563003 -0.09218476 0.41042954 0.031268127 -0.2539449 0.108804256 -0.012088695 0.08123714
0.07263748 0.0826575 -0.012817666 0.013836111 0.10182993 0.12360578 0.060650583 0.49816427
0.10173416 -0.10746011 -0.14286307 0.013646066 0.18367088 0.09443347 0.44577423 -0.071327426
-0.08798064 -0.10579575 0.13052705 -0.012193971 -0.07375857 0.15847665 -0.17103706 0.17368619
-0.051302686 0.08921708 -0.035982754 0.12565053 0.04092016 0.04546164 0.0051142466 0.0112590045
0.51408887 -0.59838426 0.5161224 0.06156522 0.12687524 0.12808177 0.08022423 -0.118539214
0.12398345 -0.11162203 -0.13627265 -0.0071690492 -0.154549 0.09660573 -0.11740985 -0.0026830875
-0.37217343 0.0279765 0.030670485 0.09261921 0.11860276 -0.033575296 0.03395078 -0.1127789
0.045093264 0.07412249 0.28436318 -0.019397477 -0.116194785 0.017797224 -0.05502052 -0.101407245
0.069742806 0.054350942 0.08700772 0.117502324 0.01458168 0.058670167 0.14657754 -0.1661725
0.12870404 0.023617717 0.014904408 -0.03545533 0.021494174 -0.08246771 0.10538031 0.08618444
0.053909175 -0.07702832 -0.38460368 -0.028832171 0.09686707 0.37656277 0.05193688 0.17610025
-0.018897818 0.010559231 0.04905015 -0.013526678 -0.058512405 -0.0825079 -0.14098576 0.119734585
-0.0045381933 -0.10857165 0.0683877 -0.024547875 -0.11092745 -0.04600773 0.04363538 -0.015381348
0.010353088 -0.09222022 -0.07067425 0.09241825 -0.022506818 0.025541559 0.045857962 -0.021878451
0.06065089 -0.1246507 -0.10020737 -0.06726712 -0.09475215 -0.102005154 0.08399613 -0.07853783
-0.14509702 0.056812797 0.075462736 -0.08101242 -0.075513035 -0.1061407 0.05165163 0.032260776
-0.054043006 0.034189012 -0.052249953 -0.109799825 0.09988737 0.049518064 -0.094551615 0.051860392
-0.052771628 0.08488324 -0.07540047 -0.029801026 0.08156954 -0.11512828 -0.12913167 0.061306756
-0.080618605 -0.022109374 -0.03837502 -0.030134413 -0.13232811 0.05252491 0.033466283 -0.097214475
-0.22482526 0.0883189 0.08934838 0.09584455 0.08589332 -0.031041848 -0.068164565 -0.09127785
0.546785 -0.7272645 0.5176712 0.12969449 0.09442192 -0.122277156 -0.00784324 -0.08925693
0.10899075 -0.04138511 -0.16900781 0.09421881 -0.030140243 -0.050567985 0.016589757 -0.111259766
-0.2893381 0.0023936175 6.360575e-05 0.07873908 -0.030987982 0.12313953 0.0056341835 0.05751402
0.042662103 0.033657465 0.2169524 -0.14239882 -0.06842895 0.12257999 -0.083741374 0.016951188
-0.02698264 0.11540435 0.01501812 -0.035694156 -0.008783951 0.18176691 -0.017448587 0.063734815
0.077461615 -0.006308728 0.107325576 -0.02297458 0.162912 -0.04874437 0.20798194 -0.004936228
0.04424284 -0.1289563 -0.23225866 -0.07515388 -0.061592687 0.4093035 0.16965881 0.15358046

model.2.bias f4 [64]
00000000: 1019 e53d 07ac 293e c1b1 4dbd 2d53 473d
00000010: 3ef6 bdbd 9b60 553d d1a6 9fbd 83a8 123e
00000020: 265e 243d d405 403e 021e 9b3d 5eaa 513e
00000030: 9eb8 1dbd 896c 753e 296d ddbc 3adb 82bc
00000040: a463 bcbd badc 2dbc 9f89 a8bc 02fd c73d
00000050: a8a9 d33d 0593 a7bd 327d 0fbd ec1b 353e
00000060: 8894 4cbd cae5 213e 3255 283e 9be6 a3bd
00000070: ae33 0c3e eac5 bcbd c51c 3bbd 3a85 473c
00000080: 567b 2c3c 36b5 eb3d 7000 18bd 673c 303e
00000090: 25db 363e 5927 4cbc a445 443d 08b5 0e3e
000000a0: f297 6d3d 454d bebd 1a76 3c3d ff17 403d
000000b0: 3582 8b3d ec67 52bd 5017 f4bd 73a2 ec3d
000000c0: 0aa4 13bd ece2 f03d 807e a7ba ded3 b33d
000000d0: c474 5bbd 31fb 433c 3d17 db3d c4e6 c4bd
000000e0: c69b 66bd 0acd c03d b9ea 283e e4b7 b93d
000000f0: 58a4 443e e390 44bd 5662 71bc 5d68 11bb
0.11186421 0.1656953 -0.050218347 0.048663307 -0.092754826 0.052094083 -0.077954896 0.14322095
0.04012885 0.18752223 0.07574083 0.20475146 -0.038506143 0.23967184 -0.02702959 -0.015973676
-0.091986924 -0.010611707 -0.020573435 0.09765054 0.10335094 -0.081823386 -0.035031505 0.17686433
-0.049946338 0.15810314 0.1643875 -0.08002969 0.13691589 -0.092174366 -0.045681734 0.01217776
0.010527452 0.115091726 -0.037109792 0.17210542 0.17857035 -0.012460553 0.047917977 0.13936245
0.058006234 -0.09292082 0.046011068 0.046897884 0.068119444 -0.05136864 -0.11918509 0.11554422
-0.03604511 0.11762032 -0.0012778789 0.08780645 -0.053578153 0.011961744 0.10697792 -0.096143275
-0.0563009 0.09414108 0.1649579 0.090682775 0.19203317 -0.047989737 -0.014732918 -0.002218745

model.4.weight f4 [2, 64]
00000000: 26f2 6dbe 11bd 34be df3f 94bd 0afc 2bbe
00000010: f02f 6bbc 0d4c 01be aae9 153e fb9a 9e3c
00000020: a47e 093c 9a3f 2d3e 4920 0abe d4d7 1dbd
00000030: a3fb aa3d ed39 02bd 2450 ab3d d0db 6d3d
00000040: c201 503a 7d2b bc3c a757 b4bd 73d4 233d
00000050: e7d0 d0bd a94c aebe 4e85 b8be ce97 aebd
00000060: b429 03bd 4510 15bd ebce 3dbd 99c0 963d
00000070: 2bda 073e 74da 043d 9419 18be 2274 ffbd
00000080: ed85 bebd 132d f6bd 653b 883d 7a01 55ba
00000090: 781b 71bc 1688 febc 63bb 6e3c 1649 a3bd
000000a0: 8544 47be 34c8 c3bd cd65 efbd c1bd c2bd
000000b0: 60a8 b03d a348 8d3d c083 5bbd 65e4 593d
000000c0: 9d5f 23bd e9ff 173d d0ca 373c 4459 f7bc
000000d0: 1428 a13d c4fa c9bd 9213 8d3d 40a4 633d
000000e0: ee61 373d f700 b43d 874a 5fbc 75b2 04be
000000f0: fc5a 3fbd c568 c2bc 6d6c d6bd d660 de3c
00000100: 2db5 063e eb78 5e3c 1b7e dabd bb32 a23b
00000110: 9882 b83d 4321 57be f762 f4bd 172c f8be
00000120: c22e d63c 027a 6fbf 728b 0dbe 91b0 10be
00000130: 2904 8fbe 9665 aabe 5d2a 27bc 8357 83be
00000140: 52b8 1a3d 8e60 d23c 0244 a53d e084 403d
00000150: 075e 88bd 7123 443e 3145 863e 558a 07bc
00000160: 689d bdbd d150 17be feb6 e1bd f0b1 f0bd
00000170: 8d3b cfbc f463 96bd 0c94 5abd ab50 0ebe
00000180: 6b18 8abd edd1 09be 6ff8 593a eb95 5dbe
00000190: d7e4 77be a366 6dbe 8b00 9e3d 67fa ebbd
000001a0: 135c 363e af68 d33d f3e3 13be e44f 07be
000001b0: 0985 ad3d 3f80 af3d fa84 cd3d f587 8ebe
000001c0: 66b3 56bd 016b 5fbe e4c1 cb3d bf79 dabe
000001d0: 20e5 cb3c 9c5b 27be 3760 69be ccd3 e1bd
000001e0: 0d49 ed3d 46b0 05bd 8a9d cebd abac cd3a
000001f0: 150c 34be af0a 243f 4970 9b3d c7a9 113d
-0.23236904 -0.17650248 -0.07238745 -0.16795364 -0.014354691 -0.12626667 0.14639917 0.01936101
0.00839201 0.16918793 -0.13488878 -0.038535908 0.08348777 -0.031793524 0.08364895 0.058070958
0.0007934832 0.022969956 -0.08805781 0.03999753 -0.10196095 -0.34042862 -0.36039203 -0.08525048
-0.032022193 -0.03639247 -0.04633991 0.07360954 0.13266818 0.032434896 -0.14853507 -0.124733225
-0.09302888 -0.12020316 0.066519536 -0.0008125525 -0.014716022 -0.03107075 0.014571044 -0.079729244
-0.19459732 -0.0955967 -0.11689339 -0.09508849 0.08625865 0.0689862 -0.053592443 0.05319633
-0.039886106 0.03710929 0.011217788 -0.030193932 0.078689724 -0.09862283 0.06888498 0.055576563
0.044771127 0.087892465 -0.013628609 -0.12958701 -0.04671763 -0.023731599 -0.10469899 0.027145784
0.1315505 0.013578634 -0.10668584 0.004949895 0.09009284 -0.21008782 -0.119329385 -0.48471138
0.026145343 -0.93545544 -0.13822725 -0.14129855 -0.2793286 -0.3328063 -0.010202971 -0.25652704
0.037773438 0.025680806 0.08069612 0.04700172 -0.06658559 0.19154145 0.26224664 -0.008272727
-0.092585385 -0.14776923 -0.11021231 -0.11752689 -0.02529695 -0.07343283 -0.053363845 -0.1389796
-0.067429386 -0.13458987 0.00083149126 -0.2163922 -0.24208389 -0.23183684 0.07714947 -0.1152237
0.17808561 0.10322701 -0.14442424 -0.1321407 0.0847264 0.08569383 0.10035129 -0.27838102
-0.05241718 -0.21818163 0.09949091 -0.4267101 0.024889529 -0.1634354 -0.2279061 -0.11026725
0.11586199 -0.03263881 -0.10088642 0.0015691718 -0.17582734 0.640788 0.07589776 0.035562303

model.4.bias f4 [2]
00000000: fa88 2d3d f0b8 96bc
0.04236696 -0.018398732
