models/simple_model.pt (torch, 22202 bytes, 6 tensors)

model.0.weight f4 [64, 8]
0	0x3e6c1415	0.23054536
1	0x3d95ff1b	0.07324048
2	0xbe026e6d	-0.12737437
3	0xbcffecfe	-0.031240936
4	0x3e4b09d1	0.19827963
5	0x3e9f9e9b	0.31175694
6	0x3ea3f86e	0.32025474
7	0x3ee5d1bf	0.44886586
8	0x3e416546	0.18886289
9	0xbddf3411	-0.10898603
10	0xbe47fc5d	-0.19529863
11	0x3e9563bb	0.2917765
12	0x3e1e7bd5	0.15476926
13	0x3d84eecc	0.064908594
14	0x3e238cca	0.15971676
15	0x3e8d1d67	0.27561495
16	0xbd13cca5	-0.036083836
17	0x3e1c7c80	0.15281868
18	0xbe48615c	-0.1956839
19	0x3ecd5300	0.40102386
20	0xbef51df7	-0.47874424
21	0xbb9a5540	-0.0047098696
22	0x3ebabd9e	0.3647279
23	0x3e6069ba	0.21915331
24	0xbd316d23	-0.04331697
25	0xbe36467e	-0.17800328
26	0x3ebc1035	0.36731115
27	0x3cba73f5	0.02276037
28	0xbe1c54c7	-0.15266715
29	0xbe5256d5	-0.20540936
30	0x3d54d30e	0.05195909
31	0x3eb0072f	0.3438048
32	0x3e8af616	0.27140874
33	0x3db8d958	0.0902583
34	0x3e2ac54c	0.16676825
35	0x3e5773c6	0.21040258
36	0xbee12579	-0.43973902
37	0xbeb46034	-0.35229647
38	0x3e2dfa91	0.16990115
39	0xbe1b41ac	-0.1516177
40	0x3e8f7e9d	0.28026286
41	0xbd9b92e0	-0.075963736
42	0xbd269b12	-0.04067523
43	0x3e7963bc	0.24354452
44	0x3eeb30ff	0.4593582
45	0xbeaa0f62	-0.3321486
46	0xbdcc87ee	-0.09986864
47	0xbea1a10a	-0.31568176
48	0x3d7a4047	0.061096456
49	0x3ec33be6	0.38131636
50	0x3e994a76	0.29939622
51	0xbde5b3d5	-0.11215941
52	0xbea11668	-0.31462407
53	0xbe88de8a	-0.26732284
54	0xbd3b6a58	-0.045755714
55	0x3e851302	0.25991064
56	0xbe7e0fbc	-0.2481069
57	0x3e161592	0.14656666
58	0x3e41b62a	0.18917146
59	0xbea751ed	-0.32679692
60	0xbe2fae74	-0.17156392
61	0xbeaaeaa2	-0.33382136
62	0xbe76d628	-0.24105132
63	0xbe7934d8	-0.24336565
64	0xbe0334bf	-0.1281309
65	0x3ea4aa66	0.32161254
66	0xbe9d0087	-0.30664465
67	0x3d11f04d	0.03562956
68	0xbc1764a5	-0.009240304
69	0xbd9cfde4	-0.07665613
70	0x3ead3a46	0.33833522
71	0xbe9e03bb	-0.3086222
72	0x3d6b28d8	0.057412
73	0xbe8f9dfe	-0.28050226
74	0x3e6ee876	0.23330864
75	0xbd8cd14b	-0.06875857
76	0xbe64f5dc	-0.22359413
77	0x3e621542	0.22078422
78	0xbd02431e	-0.03180229
79	0xbe1fd107	-0.15607081
80	0xbe84f461	-0.25967696
81	0xbd2ccb00	-0.042185783
82	0xbd69a8e8	-0.057045847
83	0xbd2fda50	-0.04293281
84	0x3e4586be	0.19289681
85	0x3a069a00	0.0005134642
86	0xbe8e45c7	-0.2778761
87	0xbe36129a	-0.17780533
88	0xbe698fae	-0.22808716
89	0x3e94263b	0.28935418
90	0xbd9585c0	-0.073009014
91	0xbd3ca678	-0.046057194
92	0x3e84dab7	0.25948116
93	0xbc785b00	-0.015158415
94	0xbe6c8624	-0.23098046
95	0xbe8c8198	-0.27442622
96	0x3ea74955	0.32673135
97	0x3e44c1da	0.19214574
98	0xbebd7a55	-0.37007394
99	0xbe553d0f	-0.20824073
100	0x3ecb55a2	0.3971377
101	0x3ae54600	0.0017492175
102	0x3c095d87	0.008384115
103	0x3d0ed82c	0.034874126
104	0x3e40fd65	0.18846662
105	0xbe8f509f	-0.27991197
106	0xbe968060	-0.29394817
107	0x3e72de96	0.23717722
108	0x3de401b9	0.11133141
109	0x3e85ef7b	0.26159272
110	0x3e8481c6	0.2588026
111	0xbd911791	-0.07084573
112	0x3e11b3c5	0.14228733
113	0x3db48d16	0.088159725
114	0xbe0a6279	-0.13514127
115	0x3e251a2c	0.16123265
116	0x3e097db9	0.13426866
117	0xbeabc2e2	-0.3354712
118	0x3e630339	0.22169198
119	0x3ed61192	0.4181028
120	0xbe6926f9	-0.22768773
121	0xbe7277be	-0.2367849
122	0xbec2f59d	-0.38078013
123	0x3dd6e9b2	0.104937926
124	0x3eb7bb1b	0.35884938
125	0xbd2884b0	-0.041142166
126	0x3ea5fa74	0.32417643
127	0xbe552547	-0.20815001
128	0x3e6b8249	0.22998919
129	0xbe1c0072	-0.15234545
130	0x3ea9eee4	0.33190072
131	0x3e9032bd	0.2816371
132	0x3ebc55ef	0.36784312
133	0xbe215eec	-0.15758866
134	0x3e43b148	0.19110596
135	0xbdd06d0a	-0.101770476
136	0xbbd67fc0	-0.0065459907
137	0x3e7ff7ce	0.24996874
138	0x3e6d0bba	0.23149005
139	0xbe5aee4f	-0.2137997
140	0xbdfdbc22	-0.12389399
141	0xbe8cb232	-0.27479702
142	0xbe5a062b	-0.21291415
143	0xbe9f83ac	-0.31155145
144	0x3d683edb	0.05670057
145	0xbe05265f	-0.13002919
146	0xbd5abec3	-0.05340458
147	0xbe1e9a45	-0.15488537
148	0xbe7971f5	-0.24359877
149	0x3dc42a08	0.09578329
150	0xbc147c26	-0.009062802
151	0x3e526a57	0.20548378
152	0xbc549a88	-0.012976296
153	0x3e893e34	0.2680527
154	0xbe1690bd	-0.14703651
155	0xbe6aa968	-0.22916186
156	0xbdadd614	-0.08488098
157	0xbd1a96a8	-0.037741333
158	0x3eb7a00e	0.358643
159	0xbe940366	-0.28908843
160	0xbcc1de70	-0.023665637
161	0xbe867ad3	-0.26265582
162	0x3e0388e6	0.12845191
163	0xbe92e9b9	-0.2869394
164	0xbd975438	-0.0738911
165	0xbe3b39f6	-0.18283829
166	0xbe314c58	-0.17314279
167	0xbeabbc0f	-0.33541915
168	0x3d53880a	0.05164341
169	0xbeab5240	-0.3346119
170	0xbe17b852	-0.14816406
171	0x3ed7b200	0.4212799
172	0x3db6567c	0.08903214
173	0x3e565596	0.20931086
174	0xbe06a2b0	-0.13147998
175	0x3d9118fc	0.070848435
176	0x3a429538	0.0007422748
177	0xbe810602	-0.25199896
178	0x3d9d508d	0.076813795
179	0x3d0ffa08	0.035150558
180	0xbd8d24f6	-0.06891815
181	0xbc3dd820	-0.011587173
182	0xbd00f468	-0.031483084
183	0xbe26f668	-0.16304934
184	0xbdaab5dd	-0.08335469
185	0xbe49a45c	-0.19691604
186	0x3d10c2cd	0.035342027
187	0xbe1da902	-0.15396503
188	0x3ecddd7c	0.40208042
189	0x3e2a7a5a	0.16648236
190	0xbe6d048d	-0.23146267
191	0xbc93c424	-0.018037863
192	0x3cc63983	0.024197346
193	0xbe44ae32	-0.19207075
194	0x3e9e3aed	0.30904332
195	0xbd8d7287	-0.0690661
196	0x3e8bd7de	0.2731313
197	0xbe416587	-0.18886386
198	0xbe92ef5f	-0.2869825
199	0xbc1fd065	-0.009754275
200	0xbee8334e	-0.45351642
201	0x3e1b3e0c	0.15160388
202	0x3d3f25d0	0.04666692
203	0x3e030a99	0.12797011
204	0x3e9abd0e	0.30222362
205	0x3e87166b	0.2638429
206	0x3e38bf04	0.18041617
207	0xba8c4969	-0.001070303
208	0xbdf25793	-0.1183311
209	0x3de08f34	0.10964814
210	0xbeaee978	-0.34162498
211	0xbbde8ae9	-0.0067914617
212	0xbdaae773	-0.08344927
213	0xbd7c2a38	-0.0615637
214	0x3e92e3bf	0.2868938
215	0xbe942f27	-0.28942224
216	0x3de125b4	0.109935194
217	0xbeb125f8	-0.3459928
218	0xbe17da38	-0.14829338
219	0x3c48445f	0.012223332
220	0xbe348046	-0.17627057
221	0xbdfc5694	-0.12321201
222	0xbe2605be	-0.16213128
223	0x3e482ba5	0.19547899
224	0xbc26a197	-0.010170362
225	0x3ec09581	0.37614062
226	0x3e82bdf2	0.25535542
227	0x3ea937b0	0.330503
228	0xbdf7f4b6	-0.12107222
229	0x3e87fe41	0.26561168
230	0x3eba54a0	0.3639269
231	0x3ea28937	0.31745312
232	0xbeb3e4df	-0.35135552
233	0xbe9543a1	-0.2915316
234	0x3c3bb7e0	0.011457413
235	0xbd863b98	-0.06554335
236	0x3c1d7d80	0.009612441
237	0x3eab1439	0.33413866
238	0x3e3a35be	0.18184564
239	0x3b587780	0.0033030212
240	0xbe5e7982	-0.21726039
241	0xbe10ce4c	-0.14141196
242	0x3f049bb2	0.5180007
243	0xbda2bfb2	-0.07946719
244	0xbd07c190	-0.03314358
245	0x3ea61add	0.3244237
246	0xbe28f653	-0.16500215
247	0x3e5ef00b	0.21771257
248	0xbbfba6df	-0.0076798047
249	0x3e41f4c8	0.18941033
250	0x3ea21070	0.31653166
251	0x3eb75c8d	0.35812798
252	0xbdace53d	-0.08442161
253	0xbe80245a	-0.25027734
254	0xbe50660c	-0.20351428
255	0xbeccb36f	-0.39980647

model.0.bias f4 [64]
0	0x3e917d3a	0.28415853
1	0xbdf41fe1	-0.11920143
2	0x3eaf0a8e	0.3418774
3	0x3e9256e4	0.28581917
4	0x3dcb25d4	0.099193245
5	0xbcbfc3b8	-0.023408756
6	0x3ead9e21	0.33909705
7	0xbe855188	-0.26038766
8	0x3e5fd92b	0.21860187
9	0x3cda68ca	0.026661295
10	0xbcae7db0	-0.021300167
11	0xbe3202d2	-0.17383888
12	0xbe2e7e84	-0.1704045
13	0xbe571659	-0.21004619
14	0x3dd92cdc	0.10604259
15	0x3ea9314f	0.33045432
16	0xbebe2b1c	-0.37142265
17	0xbe9c496a	-0.3052476
18	0x3d963f5f	0.07336306
19	0xbe8a34d6	-0.26993436
20	0xbe2ae526	-0.16688976
21	0xbe3d2446	-0.18470868
22	0xbe29bf4b	-0.16576879
23	0x3d81b0bb	0.06332537
24	0xbdcff98a	-0.10155018
25	0xbe227211	-0.15863825
26	0x3eb7aa94	0.35872328
27	0xbe99ae93	-0.30016002
28	0xbe4f89c8	-0.20267403
29	0xbeaf85c5	-0.34281746
30	0x3cb34471	0.021883221
31	0xbdd04865	-0.10170058
32	0x3ed31f41	0.41234782
33	0xbdb5d9e7	-0.08879452
34	0xbdb7dec7	-0.08978038
35	0x3e256ac5	0.1615401
36	0x3eb87abc	0.3603114
37	0x3e9cc9e4	0.3062278
38	0xbe65ed23	-0.22453742
39	0x3df76f42	0.120817676
40	0x3e9c8e5b	0.3057736
41	0xbe785458	-0.24250925
42	0xbda98a35	-0.08278314
43	0xbd021bb7	-0.031764712
44	0xbea5124c	-0.32240522
45	0x3e742e2c	0.23845738
46	0x3de512b7	0.1118521
47	0xbdc1ffdb	-0.09472629
48	0xbe89791a	-0.26850206
49	0x3eaa56f2	0.3326946
50	0xbdcb081a	-0.099136546
51	0x3d4a65e5	0.04941358
52	0xbe21d171	-0.15802552
53	0xbd7ad9a9	-0.061242733
54	0x3da150c7	0.07876735
55	0xbe869a12	-0.2628942
56	0x3ec56a80	0.38557816
57	0x3e556128	0.20837843
58	0xbe560036	-0.20898518
59	0xbe7ab3ec	-0.24482697
60	0xbe86a62c	-0.26298654
61	0x3e281acc	0.16416472
62	0xbe446296	-0.19178233
63	0x3ea674a9	0.3251088

model.2.weight f4 [64, 64]
0	0x3d5067ff	0.05088043
1	0x3d66fbf9	0.056392644
2	0x3db47b9b	0.08812638
3	0x3d0a81b2	0.033815093
4	0xbd60162a	-0.054708637
5	0xbc31f1af	-0.0108608445
6	0x3e1d5835	0.1536568
7	0xbdb4c4b0	-0.08826578
8	0xbce64edb	-0.028113773
9	0xbdee978d	-0.1165
10	0x3dda41b2	0.10657062
11	0x3dc54fee	0.09634386
12	0x3c922272	0.01783869
13	0x3d83f1eb	0.064426266
14	0x3d4a7d1a	0.049435712
15	0x3baf172b	0.005343338
16	0xbe01ba02	-0.12668613
17	0xbd95fd8e	-0.07323752
18	0x3dec8615	0.115490116
19	0x3e51f5b4	0.20503885
20	0x3d48c4ac	0.049015686
21	0xbdddd72c	-0.108320564
22	0x3da95cc6	0.08269648
23	0x3ea1c336	0.31594247
24	0xbc626fe1	-0.013820619
25	0x3e283246	0.16425428
26	0x3dbd8d94	0.092555195
27	0xbda56f00	-0.08077812
28	0x3e48184b	0.19540517
29	0xbc8cd6e0	-0.017192304
30	0xbea44101	-0.32080844
31	0x3dcb9ebb	0.09942385
32	0x3d9fa3fb	0.07794949
33	0xbbe4423d	-0.006965904
34	0x3e3f5323	0.18684058
35	0x3d8cbaf0	0.06871593
36	0xbd3a8ab8	-0.04554245
37	0xbe27aadc	-0.16373771
38	0xbd63e714	-0.055640295
39	0x3ec20b5d	0.37899294
40	0x3d1a0ebf	0.03761172
41	0xbdaba9d0	-0.083819985
42	0x3dae7f8e	0.08520423
43	0xbe9866da	-0.2976597
44	0x3dc68a72	0.09694375
45	0xbdfa9020	-0.12234521
46	0xbdcd9045	-0.10037283
47	0x3d8bc88f	0.06825363
48	0xbdf66c16	-0.120323345
49	0xbc8dd15d	-0.017311746
50	0xbd8e0905	-0.06935314
51	0xbd2734c5	-0.04082181
52	0x3c854a2a	0.016270716
53	0x3e2986da	0.16555348
54	0x3e26aa56	0.16275916
55	0xbe1cff3a	-0.15331736
56	0x3da22de2	0.07918908
57	0x3ea97048	0.33093476
58	0xbe12a954	-0.14322406
59	0xbd6f96b6	-0.05849334
60	0xbdd85a82	-0.10564138
61	0x3bde862a	0.006790896
62	0xbd29494b	-0.041329663
63	0xbdd29183	-0.102816604
64	0xbda5d057	-0.08096378
65	0x3da38f49	0.07986314
66	0x3e1797df	0.14804028
67	0x3dc3512e	0.09536968
68	0xbd7455cb	-0.05965213
69	0x3deb80d2	0.1149918
70	0xbc9a75d2	-0.01885501
71	0xbcb68930	-0.022282213
72	0x3e14e8ea	0.14541975
73	0x3d926510	0.071481824
74	0xbd69585c	-0.05696903
75	0x3de6c38e	0.11267768
76	0xbc227264	-0.009914968
77	0x3d51beb0	0.051207244
78	0x3def58bc	0.116868466
79	0xbd1ea090	-0.038727343
80	0xbd851b95	-0.064994015
81	0xbd736fc8	-0.059432775
82	0xbcb7de5e	-0.0224449
83	0x3e4f9478	0.2027148
84	0xbdc62508	-0.09675032
85	0xbda4b8cb	-0.08043059
86	0x3ddad2c7	0.10684734
87	0x3ea190d3	0.31555805
88	0x3d0c19ee	0.034204416
89	0x3c2074ec	0.009793501
90	0x3d10b351	0.03532726
91	0x3d172fdc	0.036910877
92	0x3c57a173	0.013161051
93	0x3d4afde0	0.04955852
94	0xbdbb35eb	-0.091411434
95	0x3dce27d8	0.10066193
96	0x3de93955	0.11387888
97	0x3dd2fdf1	0.10302342
98	0x3e269161	0.16266395
99	0x3e1168ea	0.14200178
100	0x3ca8c2dd	0.02060073
101	0x3ca0839c	0.019594006
102	0x3d8c6c22	0.06856562
103	0x3e94314f	0.2894387
104	0xbafd683c	-0.0019333432
105	0xbde60214	-0.11230865
106	0x3e361649	0.17781939
107	0xbde4aea3	-0.11166122
108	0x3df9487a	0.12172027
109	0x3ce3f097	0.027824683
110	0xbd1370bc	-0.035996184
111	0x3e0b2e9e	0.13592002
112	0x3d9e59a2	0.0773194
113	0x3e0fd4eb	0.14046066
114	0xbd9c9afe	-0.0764675
115	0x3da43c09	0.08019263
116	0x3d1fd7cf	0.03902417
117	0x3e60fab4	0.21970636
118	0x3c19eb8f	0.00939454
119	0xbda1f81f	-0.079086535
120	0x3d170607	0.036870982
121	0x3e63aa15	0.2223285
122	0xbdea1ac5	-0.11430887
123	0x3cf41593	0.029795444
124	0x3c9b4c38	0.018957242
125	0xbd79f6a8	-0.061026245
126	0xbdbbfd0f	-0.091791265
127	0x3ddb87ef	0.10719287
128	0x3df868e0	0.12129378
129	0xbdaf9c7f	-0.08574771
130	0xbe01796a	-0.12643972
131	0xbcfdef8e	-0.030998018
132	0x3cd15772	0.025554392
133	0x3d87c49e	0.066292986
134	0x3d13cc6e	0.03608363
135	0xbdcc6b10	-0.09981358
136	0x3e3a30fe	0.18182752
137	0xbd10fa5e	-0.03539502
138	0xbd9f3040	-0.07772875
139	0xbb382480	-0.0028097928
140	0x3cbe5ba3	0.023237055
141	0xbdd5c6c5	-0.10438303
142	0xbd81785f	-0.06321787
143	0x3ca279e4	0.019833513
144	0xbc13c1eb	-0.009018402
145	0x3dd04fae	0.10171448
146	0xbcfe697d	-0.03105616
147	0xbe220282	-0.15821269
148	0xbdf029b4	-0.11726704
149	0x3d95031f	0.07275986
150	0xbd8f6214	-0.07001129
151	0xbe885716	-0.2662894
152	0x3d873823	0.06602504
153	0xbdbb7100	-0.091524124
154	0x3d3dc6c5	0.04633214
155	0x3bbdee0c	0.0057961997
156	0x3c9eb18d	0.019371772
157	0x3d5bdef8	0.053679436
158	0x3e7ca678	0.24672878
159	0x3e028b10	0.1274836
160	0x3e480239	0.19532098
161	0x3dddcc83	0.10830023
162	0xbd1415dc	-0.03615366
163	0xbdb28154	-0.08716074
164	0x3e5240e6	0.2053257
165	0x3da9abe9	0.082847424
166	0x3c6ef860	0.014585584
167	0xbe54eb3a	-0.20792857
168	0x3d8d305f	0.06893992
169	0xbd2b89ac	-0.04187934
170	0xbd9f9000	-0.07791138
171	0x3e598d1e	0.21245238
172	0xbb613240	-0.0034362227
173	0x3dacfeec	0.0844706
174	0xbd031b62	-0.032008536
175	0x3cb17895	0.021663943
176	0xbc8a63cf	-0.016893296
177	0x3e105633	0.14095382
178	0x3c12633d	0.008934793
179	0x3dda2ca8	0.10653049
180	0xbd00398c	-0.03130488
181	0xbeb1cd49	-0.34726933
182	0xbded898c	-0.115985006
183	0x3e03050a	0.12794891
184	0xbdca116d	-0.09866605
185	0xbeb176a4	-0.34660828
186	0x3c44ef99	0.012020015
187	0x3dd628bd	0.10456989
188	0x3d26e2f4	0.040743783
189	0x3d1cc984	0.038278118
190	0x3d5a6891	0.05332238
191	0xbdda9593	-0.1067306
192	0xbd9069dc	-0.07051441
193	0xbca5ce78	-0.020240054
194	0xbd94ed70	-0.0727185
195	0xbd749488	-0.059711963
196	0xbd94e920	-0.072710276
197	0xbdda9bc2	-0.1067424
198	0xbdfe74d4	-0.12424627
199	0x3c685f20	0.014182836
200	0xbd21a964	-0.039468184
201	0xbd2aafb8	-0.041671485
202	0x3df597d2	0.11991848
203	0xbcfbb3d0	-0.03072539
204	0x3d6152a8	0.055010468
205	0x3ce26650	0.027636677
206	0xbde60ebc	-0.11233279
207	0xbd840428	-0.06446105
208	0x3dc850b6	0.097810194
209	0x3d8a8324	0.06763294
210	0x3d2d7efc	0.04235743
211	0xba371600	-0.0006984174
212	0xbd1eca08	-0.03876689
213	0x3dbd34fe	0.09238623
214	0xbb96f860	-0.0046072453
215	0x3d770904	0.060311332
216	0xbcd63748	-0.026149407
217	0x3b1abd80	0.0023611486
218	0x3db14b3c	0.08656928
219	0xbde813e4	-0.11331919
220	0xbdd8b102	-0.105806366
221	0xbd3f3118	-0.04667768
222	0x3d1a97d0	0.037742436
223	0x3dc040a2	0.09387328
224	0xbdd70a1a	-0.104999736
225	0xbdd427a0	-0.1035912
226	0xbdf617f0	-0.120162845
227	0x3d025b70	0.031825483
228	0xbd32de94	-0.0436693
229	0x3c218a10	0.009859577
230	0xbdb1477a	-0.08656211
231	0x3bffa1a0	0.0078012496
232	0x3d441bd0	0.047878087
233	0x3d5e1700	0.054221153
234	0x3ddca5ce	0.10773812
235	0xbde3bb2c	-0.111196846
236	0x3d8bce72	0.06826486
237	0x3df6b8a0	0.12046933
238	0x3d3fd768	0.046836287
239	0x3d7e2d98	0.0620552
240	0x3dd760dc	0.10516521
241	0x3dbcac26	0.09212522
242	0xbdbea8ee	-0.093095645
243	0x3cd0f018	0.02550511
244	0x3dbd30b4	0.09237805
245	0xbca55f30	-0.02018699
246	0x3ddaae20	0.10677743
247	0xbdd8c048	-0.1058355
248	0x3cc9c278	0.024628863
249	0x3dc4f56c	0.09617123
250	0x3d386c90	0.04502541
251	0xbdcc6d40	-0.09981775
252	0x3c2afff0	0.010436997
253	0xbdbf3694	-0.09336582
254	0xbbbaa5e0	-0.0056960434
255	0xbdb80196	-0.089846775

model.2.bias f4 [64]
0	0x3d46955a	0.048482276
1	0x3d9e6d30	0.077356696
2	0x3d75b615	0.0599881
3	0xbc5e6180	-0.0135730505
4	0xbdaf6adc	-0.08565304
5	0x3da481af	0.08032548
6	0xbc4a41ec	-0.012344819
7	0x3da1903c	0.07888839
8	0x3ddc84ad	0.107674934
9	0xbe0fde97	-0.14049755
10	0xbdc4cbd2	-0.09609188
11	0x3d65a329	0.056063805
12	0x3d48a574	0.048985913
13	0x3db31c9a	0.0874569
14	0xbc841136	-0.016121488
15	0xbdf72dfc	-0.12069318
16	0xbd9d0492	-0.07666887
17	0xbd35425c	-0.04425274
18	0x3d77ad33	0.06046791
19	0x3de2e9ef	0.110797755
20	0x3d098649	0.03357533
21	0xbddf75d0	-0.10911143
22	0x3e1e0249	0.15430559
23	0x3b4a6b40	0.003088668
24	0xbdb0fc5e	-0.08641885
25	0xbd2f055a	-0.042729713
26	0x3e088ee7	0.13335763
27	0x3e5053df	0.20344494
28	0x3e9e24f6	0.30887574
29	0x3e27b809	0.16378798
30	0x3e4776d5	0.19478925
31	0x3d45d0be	0.048294775
32	0xbd814d40	-0.063135624
33	0xbb08b6b7	-0.002086086
34	0x3d75ce90	0.060011446
35	0x3c250eb0	0.010074303
36	0xbd39e070	-0.045380056
37	0x3e1e2635	0.15444262
38	0x3e19b667	0.15010987
39	0xbd94c74c	-0.07264575
40	0x3deccaf7	0.1156215
41	0xbc57bd70	-0.013167724
42	0x3d912246	0.07086615
43	0x3d66f189	0.05638269
44	0x3dd4a806	0.103836104
45	0x3d845348	0.06461197
46	0xbde8fc0b	-0.113761984
47	0x3e089799	0.1333908
48	0xbdcf592c	-0.1012443
49	0xbe126dc3	-0.14299683
50	0x3d18a6bf	0.037268396
51	0x3dc893cc	0.09793815
52	0x3e220d12	0.15825298
53	0x3c5fa470	0.013650045
54	0xbdb5475e	-0.08851503
55	0x3c9e354f	0.019312529
56	0x3da7b225	0.08188275
57	0x3dd2a84b	0.102860056
58	0xbdc08ad3	-0.094014786
59	0x3dcf5242	0.10123111
60	0x3e0b3a8b	0.13596551
61	0x3dfc6e7e	0.12325762
62	0xbddef208	-0.108860075
63	0xbcc09b57	-0.023511572

model.4.weight f4 [2, 64]
0	0xbe089a75	-0.1334017
1	0xbc5591e9	-0.013035276
2	0x3d94a36c	0.07257733
3	0x3d9a7744	0.07542279
4	0x3d8498ac	0.06474432
5	0xbd609079	-0.05482528
6	0xbde60eab	-0.112332664
7	0xbe024664	-0.12722164
8	0xbdce5e7b	-0.100766145
9	0x3cb3d8b9	0.021953927
10	0xbe041168	-0.12897265
11	0xbd00d116	-0.0314494
12	0xbe13f99a	-0.14450684
13	0xbccd0839	-0.025028335
14	0xbcadb44f	-0.021204142
15	0x3dbe2d30	0.092859626
16	0xbd4360c0	-0.04769969
17	0xbdb59bff	-0.088676445
18	0xbc99ec6c	-0.018789493
19	0xbcb7b501	-0.022425177
20	0x3da6b0fa	0.08139224
21	0x3d36ddb4	0.044645026
22	0xbca33003	-0.019920355
23	0xbd026c00	-0.031841278
24	0x3afbab00	0.0019200742
25	0x3d8c372e	0.06846462
26	0x3d9edd69	0.077570744
27	0xbc1fbf45	-0.009750192
28	0x3b0bbb69	0.0021321422
29	0xbdf9780b	-0.121810995
30	0xb99da257	-0.00030066326
31	0x3d9f920f	0.0779153
32	0xbe893f92	-0.26806313
33	0x3dd98885	0.10621742
34	0x3d8372f8	0.06418413
35	0xbce8943b	-0.028390994
36	0x3dd88230	0.10571706
37	0xbd772d14	-0.060345724
38	0xbdafaf1e	-0.08578323
39	0x3d222877	0.03958937
40	0xbd4ab975	-0.04949327
41	0xbd68af28	-0.056807667
42	0xbe07d098	-0.13263166
43	0xbe4edf84	-0.20202452
44	0x3d19ab38	0.037516803
45	0xbe0e4416	-0.1389316
46	0x3cd802b2	0.026368473
47	0xbda4469a	-0.08021279
48	0xbc3fb520	-0.011700898
49	0xbd804299	-0.062627025
50	0xbc3c0870	-0.011476621
51	0x3b5debf8	0.0033862572
52	0x3e1341d7	0.14380585
53	0x3d20b0a4	0.039230958
54	0x3deeb22a	0.11655076
55	0x3e02beea	0.1276814
56	0xbc9df88c	-0.019283555
57	0xbe4cf30b	-0.20014589
58	0x3d85180a	0.06498726
59	0x3e760423	0.24025016
60	0xbdc3c3ae	-0.09558807
61	0xbdf0ae74	-0.11752024
62	0x3d44b84c	0.04802732
63	0xbd09be68	-0.03362885
64	0xbdd5ccec	-0.10439476
65	0xbe68a714	-0.22719985
66	0xbeacb3df	-0.3373098
67	0xbd193278	-0.037401646
68	0x3d94a02a	0.07257111
69	0xbe712162	-0.23547891
70	0xbd875d1c	-0.06609556
71	0xbe8aec9d	-0.27133647
72	0xbdd0850e	-0.10181628
73	0x3d974473	0.073861025
74	0xbdade7a3	-0.08491447
75	0xbe0cf8d1	-0.13766791
76	0xbd00bb68	-0.031428725
77	0x3bbbae62	0.005727575
78	0xbddce378	-0.10785574
79	0x3de261e3	0.11053827
80	0xbdef3984	-0.11680892
81	0xbb336f37	-0.0027379522
82	0x3daa503f	0.08316087
83	0xbe153208	-0.14569867
84	0x3dbffca3	0.093743585
85	0x3d2f49ec	0.042795107
86	0xbe963bdb	-0.2934254
87	0x3daf55fa	0.085613206
88	0x3d6ce964	0.057839766
89	0x3d57bde9	0.052671347
90	0xbe44c184	-0.19214445
91	0xbe359cdc	-0.17735618
92	0xbebd6445	-0.36990562
93	0xbd41f0c6	-0.04734876
94	0xbdf9fea9	-0.12206776
95	0xbdbcd6ee	-0.09220682
96	0x3edc8c0c	0.43075597
97	0xbe2895ac	-0.16463345
98	0xbe4b30be	-0.19842812
99	0xbe4c7fbf	-0.19970606
100	0x3df43970	0.11925018
101	0xbe462109	-0.1934854
102	0xbe2eb3ec	-0.17060822
103	0x3d932a71	0.071858294
104	0xbe1ece0f	-0.15508293
105	0xbd85ef05	-0.0653973
106	0x3db96726	0.09052877
107	0xbcd2199c	-0.025646977
108	0xbe284e45	-0.16436107
109	0xbd6ce2a1	-0.057833318
110	0xbc4ead6b	-0.012614588
111	0xbe13aebe	-0.14422128
112	0x3d188fa8	0.037246376
113	0x3dbfc89a	0.093644336
114	0xbe4575fd	-0.1928329
115	0xbe8e6a08	-0.2781527
116	0xbee5aa7f	-0.4485664
117	0xbdb6c59e	-0.08924411
118	0xbde3e00a	-0.111267164
119	0xbe5ac237	-0.2136315
120	0xbe59ea90	-0.21280885
121	0x3e085ba4	0.13316208
122	0xbd5b39a9	-0.053521786
123	0xbe02b78f	-0.12765335
124	0xbd545535	-0.051839072
125	0xbd201d44	-0.03909041
126	0xbdcaed20	-0.09908509
127	0xbe3700d9	-0.17871417

model.4.bias f4 [2]
0	0xbd8bc99e	-0.06825565
1	0xbe0cd4be	-0.1375303
